…
I0223 23:00:42.903424  3602 net.cpp:322] The NetState phase (0) differed from the phase (1) specified by a rule in layer accuracy
I0223 23:00:42.903666  3602 net.cpp:58] Initializing net from parameters: 
name: "lstm_language_model"
state {
  phase: TRAIN
  level: 0
  stage: "embed-drop"
  stage: "lstm-drop"
  stage: ""
}
layer {
  name: "data"
  type: "HDF5Data"
  top: "cont_sentence"
  top: "input_sentence"
  top: "target_sentence"
  include {
    phase: TRAIN
  }
  hdf5_data_param {
    source: "/media/yves/sandisk3/caffe-master/examples/coco_caption/h5_data/buffer_16/train_unaligned_batches/hdf5_chunk_list.txt"
    batch_size: 16
  }
}
layer {
  name: "embedding"
  type: "Embed"
  bottom: "input_sentence"
  top: "embedded_input_sentence"
  param {
    lr_mult: 1
  }
  embed_param {
    num_output: 1000
    input_dim: 8801
    bias_term: false
    weight_filler {
      type: "uniform"
      min: -0.08
      max: 0.08
    }
  }
}
layer {
  name: "embed-drop"
  type: "Dropout"
  bottom: "embedded_input_sentence"
  top: "embedded_input_sentence"
  include {
    stage: "embed-drop"
  }
  dropout_param {
    dropout_ratio: 0.5
  }
}
layer {
  name: "lstm1"
  type: "LSTM"
  bottom: "embedded_input_sentence"
  bottom: "cont_sentence"
  top: "lstm1"
  recurrent_param {
    num_output: 1000
    weight_filler {
      type: "uniform"
      min: -0.08
      max: 0.08
    }
    bias_filler {
      type: "constant"
      value: 0
    }
  }
}
layer {
  name: "lstm-drop"
  type: "Dropout"
  bottom: "lstm1"
  top: "lstm1"
  include {
    stage: "lstm-drop"
  }
  dropout_param {
    dropout_ratio: 0.5
  }
}
layer {
  name: "predict"
  type: "InnerProduct"
  bottom: "lstm1"
  top: "predict"
  param {
    lr_mult: 1
    decay_mult: 1
  }
  param {
    lr_mult: 2
    decay_mult: 0
  }
  inner_product_param {
    num_output: 8801
    weight_filler {
      type: "uniform"
      min: -0.08
      max: 0.08
    }
    bias_filler {
      type: "constant"
      value: 0
    }
    axis: 2
  }
}
layer {
  name: "cross_entropy_loss"
  type: "SoftmaxWithLoss"
  bottom: "predict"
  bottom: "target_sentence"
  top: "cross_entropy_loss"
  loss_weight: 20
  loss_param {
    ignore_label: -1
  }
  softmax_param {
    axis: 2
  }
}
I0223 23:00:42.903822  3602 layer_factory.hpp:77] Creating layer data
I0223 23:00:42.904397  3602 net.cpp:100] Creating Layer data
I0223 23:00:42.904425  3602 net.cpp:408] data -> cont_sentence
I0223 23:00:42.904470  3602 net.cpp:408] data -> input_sentence
I0223 23:00:42.904503  3602 net.cpp:408] data -> target_sentence
I0223 23:00:42.904530  3602 hdf5_data_layer.cpp:79] Loading list of HDF5 filenames from: /media/yves/sandisk3/caffe-master/examples/coco_caption/h5_data/buffer_16/train_unaligned_batches/hdf5_chunk_list.txt
I0223 23:00:42.905954  3602 hdf5_data_layer.cpp:93] Number of HDF5 files: 3
I0223 23:00:43.185833  3602 hdf5.cpp:32] Datatype class: H5T_FLOAT
I0223 23:00:43.328979  3602 net.cpp:150] Setting up data
I0223 23:00:43.329022  3602 net.cpp:157] Top shape: 16 16 (256)
I0223 23:00:43.329042  3602 net.cpp:157] Top shape: 16 16 (256)
I0223 23:00:43.329061  3602 net.cpp:157] Top shape: 16 16 (256)
I0223 23:00:43.329068  3602 net.cpp:165] Memory required for data: 3072
I0223 23:00:43.329082  3602 layer_factory.hpp:77] Creating layer embedding
I0223 23:00:43.329105  3602 net.cpp:100] Creating Layer embedding
I0223 23:00:43.329116  3602 net.cpp:434] embedding <- input_sentence
I0223 23:00:43.329134  3602 net.cpp:408] embedding -> embedded_input_sentence
I0223 23:00:43.383296  3602 net.cpp:150] Setting up embedding
I0223 23:00:43.383333  3602 net.cpp:157] Top shape: 16 16 1000 (256000)
I0223 23:00:43.383337  3602 net.cpp:165] Memory required for data: 1027072
I0223 23:00:43.383349  3602 layer_factory.hpp:77] Creating layer embed-drop
I0223 23:00:43.383808  3602 net.cpp:100] Creating Layer embed-drop
I0223 23:00:43.383815  3602 net.cpp:434] embed-drop <- embedded_input_sentence
I0223 23:00:43.383821  3602 net.cpp:395] embed-drop -> embedded_input_sentence (in-place)
I0223 23:00:43.383872  3602 net.cpp:150] Setting up embed-drop
I0223 23:00:43.383877  3602 net.cpp:157] Top shape: 16 16 1000 (256000)
I0223 23:00:43.383882  3602 net.cpp:165] Memory required for data: 2051072
I0223 23:00:43.383885  3602 layer_factory.hpp:77] Creating layer lstm1
I0223 23:00:43.384464  3602 net.cpp:100] Creating Layer lstm1
I0223 23:00:43.384469  3602 net.cpp:434] lstm1 <- embedded_input_sentence
I0223 23:00:43.384472  3602 net.cpp:434] lstm1 <- cont_sentence
I0223 23:00:43.384476  3602 net.cpp:408] lstm1 -> lstm1
I0223 23:00:43.384485  3602 recurrent_layer.cpp:20] Initializing recurrent layer: assuming input batch contains 16 timesteps of 16 independent streams.
I0223 23:00:43.384871  3602 net.cpp:58] Initializing net from parameters: 
layer {
  name: "lstm1_"
  type: "Input"
  top: "x"
  top: "cont"
  input_param {
    shape {
      dim: 16
      dim: 16
      dim: 1000
    }
    shape {
      dim: 16
      dim: 16
    }
  }
}
layer {
  name: "lstm1_"
  type: "Input"
  top: "c_0"
  top: "h_0"
  input_param {
    shape {
      dim: 1
      dim: 16
      dim: 1000
    }
    shape {
      dim: 1
      dim: 16
      dim: 1000
    }
  }
}
layer {
  name: "lstm1_cont_slice"
  type: "Slice"
  bottom: "cont"
  top: "cont_1"
  top: "cont_2"
  top: "cont_3"
  top: "cont_4"
  top: "cont_5"
  top: "cont_6"
  top: "cont_7"
  top: "cont_8"
  top: "cont_9"
  top: "cont_10"
  top: "cont_11"
  top: "cont_12"
  top: "cont_13"
  top: "cont_14"
  top: "cont_15"
  top: "cont_16"
  slice_param {
    axis: 0
  }
}
layer {
  name: "lstm1_x_transform"
  type: "InnerProduct"
  bottom: "x"
  top: "W_xc_x"
  param {
    name: "W_xc"
  }
  param {
    name: "b_c"
  }
  propagate_down: true
  inner_product_param {
    num_output: 4000
    bias_term: true
    weight_filler {
      type: "uniform"
      min: -0.08
      max: 0.08
    }
    bias_filler {
      type: "constant"
      value: 0
    }
    axis: 2
  }
}
layer {
  name: "lstm1_W_xc_x_slice"
  type: "Slice"
  bottom: "W_xc_x"
  top: "W_xc_x_1"
  top: "W_xc_x_2"
  top: "W_xc_x_3"
  top: "W_xc_x_4"
  top: "W_xc_x_5"
  top: "W_xc_x_6"
  top: "W_xc_x_7"
  top: "W_xc_x_8"
  top: "W_xc_x_9"
  top: "W_xc_x_10"
  top: "W_xc_x_11"
  top: "W_xc_x_12"
  top: "W_xc_x_13"
  top: "W_xc_x_14"
  top: "W_xc_x_15"
  top: "W_xc_x_16"
  slice_param {
    axis: 0
  }
}
layer {
  name: "lstm1_h_conted_0"
  type: "Scale"
  bottom: "h_0"
  bottom: "cont_1"
  top: "h_conted_0"
  scale_param {
    axis: 0
  }
}
layer {
  name: "lstm1_transform_1"
  type: "InnerProduct"
  bottom: "h_conted_0"
  top: "W_hc_h_0"
  param {
    name: "W_hc"
  }
  inner_product_param {
    num_output: 4000
    bias_term: false
    weight_filler {
      type: "uniform"
      min: -0.08
      max: 0.08
    }
    axis: 2
  }
}
layer {
  name: "lstm1_gate_input_1"
  type: "Eltwise"
  bottom: "W_hc_h_0"
  bottom: "W_xc_x_1"
  top: "gate_input_1"
  eltwise_param {
    operation: SUM
  }
}
layer {
  name: "lstm1_unit_1"
  type: "LSTMUnit"
  bottom: "c_0"
  bottom: "gate_input_1"
  bottom: "cont_1"
  top: "c_1"
  top: "h_1"
}
layer {
  name: "lstm1_h_conted_1"
  type: "Scale"
  bottom: "h_1"
  bottom: "cont_2"
  top: "h_conted_1"
  scale_param {
    axis: 0
  }
}
layer {
  name: "lstm1_transform_2"
  type: "InnerProduct"
  bottom: "h_conted_1"
  top: "W_hc_h_1"
  param {
    name: "W_hc"
  }
  inner_product_param {
    num_output: 4000
    bias_term: false
    weight_filler {
      type: "uniform"
      min: -0.08
      max: 0.08
    }
    axis: 2
  }
}
layer {
  name: "lstm1_gate_input_2"
  type: "Eltwise"
  bottom: "W_hc_h_1"
  bottom: "W_xc_x_2"
  top: "gate_input_2"
  eltwise_param {
    operation: SUM
  }
}
layer {
  name: "lstm1_unit_2"
  type: "LSTMUnit"
  bottom: "c_1"
  bottom: "gate_input_2"
  bottom: "cont_2"
  top: "c_2"
  top: "h_2"
}
layer {
  name: "lstm1_h_conted_2"
  type: "Scale"
  bottom: "h_2"
  bottom: "cont_3"
  top: "h_conted_2"
  scale_param {
    axis: 0
  }
}
layer {
  name: "lstm1_transform_3"
  type: "InnerProduct"
  bottom: "h_conted_2"
  top: "W_hc_h_2"
  param {
    name: "W_hc"
  }
  inner_product_param {
    num_output: 4000
    bias_term: false
    weight_filler {
      type: "uniform"
      min: -0.08
      max: 0.08
    }
    axis: 2
  }
}
layer {
  name: "lstm1_gate_input_3"
  type: "Eltwise"
  bottom: "W_hc_h_2"
  bottom: "W_xc_x_3"
  top: "gate_input_3"
  eltwise_param {
    operation: SUM
  }
}
layer {
  name: "lstm1_unit_3"
  type: "LSTMUnit"
  bottom: "c_2"
  bottom: "gate_input_3"
  bottom: "cont_3"
  top: "c_3"
  top: "h_3"
}
layer {
  name: "lstm1_h_conted_3"
  type: "Scale"
  bottom: "h_3"
  bottom: "cont_4"
  top: "h_conted_3"
  scale_param {
    axis: 0
  }
}
layer {
  name: "lstm1_transform_4"
  type: "InnerProduct"
  bottom: "h_conted_3"
  top: "W_hc_h_3"
  param {
    name: "W_hc"
  }
  inner_product_param {
    num_output: 4000
    bias_term: false
    weight_filler {
      type: "uniform"
      min: -0.08
      max: 0.08
    }
    axis: 2
  }
}
layer {
  name: "lstm1_gate_input_4"
  type: "Eltwise"
  bottom: "W_hc_h_3"
  bottom: "W_xc_x_4"
  top: "gate_input_4"
  eltwise_param {
    operation: SUM
  }
}
layer {
  name: "lstm1_unit_4"
  type: "LSTMUnit"
  bottom: "c_3"
  bottom: "gate_input_4"
  bottom: "cont_4"
  top: "c_4"
  top: "h_4"
}
layer {
  name: "lstm1_h_conted_4"
  type: "Scale"
  bottom: "h_4"
  bottom: "cont_5"
  top: "h_conted_4"
  scale_param {
    axis: 0
  }
}
layer {
  name: "lstm1_transform_5"
  type: "InnerProduct"
  bottom: "h_conted_4"
  top: "W_hc_h_4"
  param {
    name: "W_hc"
  }
  inner_product_param {
    num_output: 4000
    bias_term: false
    weight_filler {
      type: "uniform"
      min: -0.08
      max: 0.08
    }
    axis: 2
  }
}
layer {
  name: "lstm1_gate_input_5"
  type: "Eltwise"
  bottom: "W_hc_h_4"
  bottom: "W_xc_x_5"
  top: "gate_input_5"
  eltwise_param {
    operation: SUM
  }
}
layer {
  name: "lstm1_unit_5"
  type: "LSTMUnit"
  bottom: "c_4"
  bottom: "gate_input_5"
  bottom: "cont_5"
  top: "c_5"
  top: "h_5"
}
layer {
  name: "lstm1_h_conted_5"
  type: "Scale"
  bottom: "h_5"
  bottom: "cont_6"
  top: "h_conted_5"
  scale_param {
    axis: 0
  }
}
layer {
  name: "lstm1_transform_6"
  type: "InnerProduct"
  bottom: "h_conted_5"
  top: "W_hc_h_5"
  param {
    name: "W_hc"
  }
  inner_product_param {
    num_output: 4000
    bias_term: false
    weight_filler {
      type: "uniform"
      min: -0.08
      max: 0.08
    }
    axis: 2
  }
}
layer {
  name: "lstm1_gate_input_6"
  type: "Eltwise"
  bottom: "W_hc_h_5"
  bottom: "W_xc_x_6"
  top: "gate_input_6"
  eltwise_param {
    operation: SUM
  }
}
layer {
  name: "lstm1_unit_6"
  type: "LSTMUnit"
  bottom: "c_5"
  bottom: "gate_input_6"
  bottom: "cont_6"
  top: "c_6"
  top: "h_6"
}
layer {
  name: "lstm1_h_conted_6"
  type: "Scale"
  bottom: "h_6"
  bottom: "cont_7"
  top: "h_conted_6"
  scale_param {
    axis: 0
  }
}
layer {
  name: "lstm1_transform_7"
  type: "InnerProduct"
  bottom: "h_conted_6"
  top: "W_hc_h_6"
  param {
    name: "W_hc"
  }
  inner_product_param {
    num_output: 4000
    bias_term: false
    weight_filler {
      type: "uniform"
      min: -0.08
      max: 0.08
    }
    axis: 2
  }
}
layer {
  name: "lstm1_gate_input_7"
  type: "Eltwise"
  bottom: "W_hc_h_6"
  bottom: "W_xc_x_7"
  top: "gate_input_7"
  eltwise_param {
    operation: SUM
  }
}
layer {
  name: "lstm1_unit_7"
  type: "LSTMUnit"
  bottom: "c_6"
  bottom: "gate_input_7"
  bottom: "cont_7"
  top: "c_7"
  top: "h_7"
}
layer {
  name: "lstm1_h_conted_7"
  type: "Scale"
  bottom: "h_7"
  bottom: "cont_8"
  top: "h_conted_7"
  scale_param {
    axis: 0
  }
}
layer {
  name: "lstm1_transform_8"
  type: "InnerProduct"
  bottom: "h_conted_7"
  top: "W_hc_h_7"
  param {
    name: "W_hc"
  }
  inner_product_param {
    num_output: 4000
    bias_term: false
    weight_filler {
      type: "uniform"
      min: -0.08
      max: 0.08
    }
    axis: 2
  }
}
layer {
  name: "lstm1_gate_input_8"
  type: "Eltwise"
  bottom: "W_hc_h_7"
  bottom: "W_xc_x_8"
  top: "gate_input_8"
  eltwise_param {
    operation: SUM
  }
}
layer {
  name: "lstm1_unit_8"
  type: "LSTMUnit"
  bottom: "c_7"
  bottom: "gate_input_8"
  bottom: "cont_8"
  top: "c_8"
  top: "h_8"
}
layer {
  name: "lstm1_h_conted_8"
  type: "Scale"
  bottom: "h_8"
  bottom: "cont_9"
  top: "h_conted_8"
  scale_param {
    axis: 0
  }
}
layer {
  name: "lstm1_transform_9"
  type: "InnerProduct"
  bottom: "h_conted_8"
  top: "W_hc_h_8"
  param {
    name: "W_hc"
  }
  inner_product_param {
    num_output: 4000
    bias_term: false
    weight_filler {
      type: "uniform"
      min: -0.08
      max: 0.08
    }
    axis: 2
  }
}
layer {
  name: "lstm1_gate_input_9"
  type: "Eltwise"
  bottom: "W_hc_h_8"
  bottom: "W_xc_x_9"
  top: "gate_input_9"
  eltwise_param {
    operation: SUM
  }
}
layer {
  name: "lstm1_unit_9"
  type: "LSTMUnit"
  bottom: "c_8"
  bottom: "gate_input_9"
  bottom: "cont_9"
  top: "c_9"
  top: "h_9"
}
layer {
  name: "lstm1_h_conted_9"
  type: "Scale"
  bottom: "h_9"
  bottom: "cont_10"
  top: "h_conted_9"
  scale_param {
    axis: 0
  }
}
layer {
  name: "lstm1_transform_10"
  type: "InnerProduct"
  bottom: "h_conted_9"
  top: "W_hc_h_9"
  param {
    name: "W_hc"
  }
  inner_product_param {
    num_output: 4000
    bias_term: false
    weight_filler {
      type: "uniform"
      min: -0.08
      max: 0.08
    }
    axis: 2
  }
}
layer {
  name: "lstm1_gate_input_10"
  type: "Eltwise"
  bottom: "W_hc_h_9"
  bottom: "W_xc_x_10"
  top: "gate_input_10"
  eltwise_param {
    operation: SUM
  }
}
layer {
  name: "lstm1_unit_10"
  type: "LSTMUnit"
  bottom: "c_9"
  bottom: "gate_input_10"
  bottom: "cont_10"
  top: "c_10"
  top: "h_10"
}
layer {
  name: "lstm1_h_conted_10"
  type: "Scale"
  bottom: "h_10"
  bottom: "cont_11"
  top: "h_conted_10"
  scale_param {
    axis: 0
  }
}
layer {
  name: "lstm1_transform_11"
  type: "InnerProduct"
  bottom: "h_conted_10"
  top: "W_hc_h_10"
  param {
    name: "W_hc"
  }
  inner_product_param {
    num_output: 4000
    bias_term: false
    weight_filler {
      type: "uniform"
      min: -0.08
      max: 0.08
    }
    axis: 2
  }
}
layer {
  name: "lstm1_gate_input_11"
  type: "Eltwise"
  bottom: "W_hc_h_10"
  bottom: "W_xc_x_11"
  top: "gate_input_11"
  eltwise_param {
    operation: SUM
  }
}
layer {
  name: "lstm1_unit_11"
  type: "LSTMUnit"
  bottom: "c_10"
  bottom: "gate_input_11"
  bottom: "cont_11"
  top: "c_11"
  top: "h_11"
}
layer {
  name: "lstm1_h_conted_11"
  type: "Scale"
  bottom: "h_11"
  bottom: "cont_12"
  top: "h_conted_11"
  scale_param {
    axis: 0
  }
}
layer {
  name: "lstm1_transform_12"
  type: "InnerProduct"
  bottom: "h_conted_11"
  top: "W_hc_h_11"
  param {
    name: "W_hc"
  }
  inner_product_param {
    num_output: 4000
    bias_term: false
    weight_filler {
      type: "uniform"
      min: -0.08
      max: 0.08
    }
    axis: 2
  }
}
layer {
  name: "lstm1_gate_input_12"
  type: "Eltwise"
  bottom: "W_hc_h_11"
  bottom: "W_xc_x_12"
  top: "gate_input_12"
  eltwise_param {
    operation: SUM
  }
}
layer {
  name: "lstm1_unit_12"
  type: "LSTMUnit"
  bottom: "c_11"
  bottom: "gate_input_12"
  bottom: "cont_12"
  top: "c_12"
  top: "h_12"
}
layer {
  name: "lstm1_h_conted_12"
  type: "Scale"
  bottom: "h_12"
  bottom: "cont_13"
  top: "h_conted_12"
  scale_param {
    axis: 0
  }
}
layer {
  name: "lstm1_transform_13"
  type: "InnerProduct"
  bottom: "h_conted_12"
  top: "W_hc_h_12"
  param {
    name: "W_hc"
  }
  inner_product_param {
    num_output: 4000
    bias_term: false
    weight_filler {
      type: "uniform"
      min: -0.08
      max: 0.08
    }
    axis: 2
  }
}
layer {
  name: "lstm1_gate_input_13"
  type: "Eltwise"
  bottom: "W_hc_h_12"
  bottom: "W_xc_x_13"
  top: "gate_input_13"
  eltwise_param {
    operation: SUM
  }
}
layer {
  name: "lstm1_unit_13"
  type: "LSTMUnit"
  bottom: "c_12"
  bottom: "gate_input_13"
  bottom: "cont_13"
  top: "c_13"
  top: "h_13"
}
layer {
  name: "lstm1_h_conted_13"
  type: "Scale"
  bottom: "h_13"
  bottom: "cont_14"
  top: "h_conted_13"
  scale_param {
    axis: 0
  }
}
layer {
  name: "lstm1_transform_14"
  type: "InnerProduct"
  bottom: "h_conted_13"
  top: "W_hc_h_13"
  param {
    name: "W_hc"
  }
  inner_product_param {
    num_output: 4000
    bias_term: false
    weight_filler {
      type: "uniform"
      min: -0.08
      max: 0.08
    }
    axis: 2
  }
}
layer {
  name: "lstm1_gate_input_14"
  type: "Eltwise"
  bottom: "W_hc_h_13"
  bottom: "W_xc_x_14"
  top: "gate_input_14"
  eltwise_param {
    operation: SUM
  }
}
layer {
  name: "lstm1_unit_14"
  type: "LSTMUnit"
  bottom: "c_13"
  bottom: "gate_input_14"
  bottom: "cont_14"
  top: "c_14"
  top: "h_14"
}
layer {
  name: "lstm1_h_conted_14"
  type: "Scale"
  bottom: "h_14"
  bottom: "cont_15"
  top: "h_conted_14"
  scale_param {
    axis: 0
  }
}
layer {
  name: "lstm1_transform_15"
  type: "InnerProduct"
  bottom: "h_conted_14"
  top: "W_hc_h_14"
  param {
    name: "W_hc"
  }
  inner_product_param {
    num_output: 4000
    bias_term: false
    weight_filler {
      type: "uniform"
      min: -0.08
      max: 0.08
    }
    axis: 2
  }
}
layer {
  name: "lstm1_gate_input_15"
  type: "Eltwise"
  bottom: "W_hc_h_14"
  bottom: "W_xc_x_15"
  top: "gate_input_15"
  eltwise_param {
    operation: SUM
  }
}
layer {
  name: "lstm1_unit_15"
  type: "LSTMUnit"
  bottom: "c_14"
  bottom: "gate_input_15"
  bottom: "cont_15"
  top: "c_15"
  top: "h_15"
}
layer {
  name: "lstm1_h_conted_15"
  type: "Scale"
  bottom: "h_15"
  bottom: "cont_16"
  top: "h_conted_15"
  scale_param {
    axis: 0
  }
}
layer {
  name: "lstm1_transform_16"
  type: "InnerProduct"
  bottom: "h_conted_15"
  top: "W_hc_h_15"
  param {
    name: "W_hc"
  }
  inner_product_param {
    num_output: 4000
    bias_term: false
    weight_filler {
      type: "uniform"
      min: -0.08
      max: 0.08
    }
    axis: 2
  }
}
layer {
  name: "lstm1_gate_input_16"
  type: "Eltwise"
  bottom: "W_hc_h_15"
  bottom: "W_xc_x_16"
  top: "gate_input_16"
  eltwise_param {
    operation: SUM
  }
}
layer {
  name: "lstm1_unit_16"
  type: "LSTMUnit"
  bottom: "c_15"
  bottom: "gate_input_16"
  bottom: "cont_16"
  top: "c_16"
  top: "h_16"
}
layer {
  name: "lstm1_"
  type: "Split"
  bottom: "c_16"
  top: "c_T"
}
layer {
  name: "lstm1_h_concat"
  type: "Concat"
  bottom: "h_1"
  bottom: "h_2"
  bottom: "h_3"
  bottom: "h_4"
  bottom: "h_5"
  bottom: "h_6"
  bottom: "h_7"
  bottom: "h_8"
  bottom: "h_9"
  bottom: "h_10"
  bottom: "h_11"
  bottom: "h_12"
  bottom: "h_13"
  bottom: "h_14"
  bottom: "h_15"
  bottom: "h_16"
  top: "h"
  concat_param {
    axis: 0
  }
}
layer {
  name: "h_pseudoloss"
  type: "Reduction"
  bottom: "h"
  top: "h_pseudoloss"
  loss_weight: 1
}
I0223 23:00:43.385200  3602 layer_factory.hpp:77] Creating layer lstm1_
I0223 23:00:43.385207  3602 net.cpp:100] Creating Layer lstm1_
I0223 23:00:43.385211  3602 net.cpp:408] lstm1_ -> x
I0223 23:00:43.385217  3602 net.cpp:408] lstm1_ -> cont
I0223 23:00:43.385246  3602 net.cpp:150] Setting up lstm1_
I0223 23:00:43.385251  3602 net.cpp:157] Top shape: 16 16 1000 (256000)
I0223 23:00:43.385253  3602 net.cpp:157] Top shape: 16 16 (256)
I0223 23:00:43.385257  3602 net.cpp:165] Memory required for data: 1025024
I0223 23:00:43.385258  3602 layer_factory.hpp:77] Creating layer lstm1_
I0223 23:00:43.385265  3602 net.cpp:100] Creating Layer lstm1_
I0223 23:00:43.385272  3602 net.cpp:408] lstm1_ -> c_0
I0223 23:00:43.385277  3602 net.cpp:408] lstm1_ -> h_0
I0223 23:00:43.385295  3602 net.cpp:150] Setting up lstm1_
I0223 23:00:43.385299  3602 net.cpp:157] Top shape: 1 16 1000 (16000)
I0223 23:00:43.385303  3602 net.cpp:157] Top shape: 1 16 1000 (16000)
I0223 23:00:43.385304  3602 net.cpp:165] Memory required for data: 1153024
I0223 23:00:43.385308  3602 layer_factory.hpp:77] Creating layer lstm1_cont_slice
I0223 23:00:43.385311  3602 net.cpp:100] Creating Layer lstm1_cont_slice
I0223 23:00:43.385314  3602 net.cpp:434] lstm1_cont_slice <- cont
I0223 23:00:43.385318  3602 net.cpp:408] lstm1_cont_slice -> cont_1
I0223 23:00:43.385324  3602 net.cpp:408] lstm1_cont_slice -> cont_2
…
I0223 23:00:43.385356  3602 net.cpp:408] lstm1_cont_slice -> cont_9
I0223 23:00:43.385360  3602 net.cpp:408] lstm1_cont_slice -> cont_10
I0223 23:00:43.385366  3602 net.cpp:408] lstm1_cont_slice -> cont_11
I0223 23:00:43.385370  3602 net.cpp:408] lstm1_cont_slice -> cont_12
I0223 23:00:43.385375  3602 net.cpp:408] lstm1_cont_slice -> cont_13
I0223 23:00:43.385380  3602 net.cpp:408] lstm1_cont_slice -> cont_14
I0223 23:00:43.385385  3602 net.cpp:408] lstm1_cont_slice -> cont_15
I0223 23:00:43.385388  3602 net.cpp:408] lstm1_cont_slice -> cont_16
I0223 23:00:43.385489  3602 net.cpp:150] Setting up lstm1_cont_slice
I0223 23:00:43.385493  3602 net.cpp:157] Top shape: 1 16 (16)
I0223 23:00:43.385496  3602 net.cpp:157] Top shape: 1 16 (16)
I0223 23:00:43.385499  3602 net.cpp:157] Top shape: 1 16 (16)
I0223 23:00:43.385502  3602 net.cpp:157] Top shape: 1 16 (16)
I0223 23:00:43.385505  3602 net.cpp:157] Top shape: 1 16 (16)
I0223 23:00:43.385507  3602 net.cpp:157] Top shape: 1 16 (16)
I0223 23:00:43.385510  3602 net.cpp:157] Top shape: 1 16 (16)
I0223 23:00:43.385514  3602 net.cpp:157] Top shape: 1 16 (16)
I0223 23:00:43.385515  3602 net.cpp:157] Top shape: 1 16 (16)
I0223 23:00:43.385519  3602 net.cpp:157] Top shape: 1 16 (16)
I0223 23:00:43.385521  3602 net.cpp:157] Top shape: 1 16 (16)
I0223 23:00:43.385524  3602 net.cpp:157] Top shape: 1 16 (16)
I0223 23:00:43.385526  3602 net.cpp:157] Top shape: 1 16 (16)
I0223 23:00:43.385529  3602 net.cpp:157] Top shape: 1 16 (16)
I0223 23:00:43.385531  3602 net.cpp:157] Top shape: 1 16 (16)
I0223 23:00:43.385535  3602 net.cpp:157] Top shape: 1 16 (16)
I0223 23:00:43.385536  3602 net.cpp:165] Memory required for data: 1154048
I0223 23:00:43.385540  3602 layer_factory.hpp:77] Creating layer cont_1_lstm1_cont_slice_0_split
I0223 23:00:43.385545  3602 net.cpp:100] Creating Layer cont_1_lstm1_cont_slice_0_split
I0223 23:00:43.385548  3602 net.cpp:434] cont_1_lstm1_cont_slice_0_split <- cont_1
I0223 23:00:43.385551  3602 net.cpp:408] cont_1_lstm1_cont_slice_0_split -> cont_1_lstm1_cont_slice_0_split_0
I0223 23:00:43.385555  3602 net.cpp:408] cont_1_lstm1_cont_slice_0_split -> cont_1_lstm1_cont_slice_0_split_1
I0223 23:00:43.385573  3602 net.cpp:150] Setting up cont_1_lstm1_cont_slice_0_split
I0223 23:00:43.385577  3602 net.cpp:157] Top shape: 1 16 (16)
I0223 23:00:43.385581  3602 net.cpp:157] Top shape: 1 16 (16)
I0223 23:00:43.385583  3602 net.cpp:165] Memory required for data: 1154176
I0223 23:00:43.385586  3602 layer_factory.hpp:77] Creating layer cont_2_lstm1_cont_slice_1_split
I0223 23:00:43.385589  3602 net.cpp:100] Creating Layer cont_2_lstm1_cont_slice_1_split
I0223 23:00:43.385591  3602 net.cpp:434] cont_2_lstm1_cont_slice_1_split <- cont_2
I0223 23:00:43.385596  3602 net.cpp:408] cont_2_lstm1_cont_slice_1_split -> cont_2_lstm1_cont_slice_1_split_0
I0223 23:00:43.385599  3602 net.cpp:408] cont_2_lstm1_cont_slice_1_split -> cont_2_lstm1_cont_slice_1_split_1
I0223 23:00:43.385622  3602 net.cpp:150] Setting up cont_2_lstm1_cont_slice_1_split
I0223 23:00:43.385625  3602 net.cpp:157] Top shape: 1 16 (16)
I0223 23:00:43.385628  3602 net.cpp:157] Top shape: 1 16 (16)
I0223 23:00:43.385632  3602 net.cpp:165] Memory required for data: 1154304
I0223 23:00:43.385633  3602 layer_factory.hpp:77] Creating layer cont_3_lstm1_cont_slice_2_split
I0223 23:00:43.385637  3602 net.cpp:100] Creating Layer cont_3_lstm1_cont_slice_2_split
I0223 23:00:43.385639  3602 net.cpp:434] cont_3_lstm1_cont_slice_2_split <- cont_3
I0223 23:00:43.385643  3602 net.cpp:408] cont_3_lstm1_cont_slice_2_split -> cont_3_lstm1_cont_slice_2_split_0
I0223 23:00:43.385646  3602 net.cpp:408] cont_3_lstm1_cont_slice_2_split -> cont_3_lstm1_cont_slice_2_split_1
I0223 23:00:43.385664  3602 net.cpp:150] Setting up cont_3_lstm1_cont_slice_2_split
I0223 23:00:43.385668  3602 net.cpp:157] Top shape: 1 16 (16)
I0223 23:00:43.385670  3602 net.cpp:157] Top shape: 1 16 (16)
I0223 23:00:43.385673  3602 net.cpp:165] Memory required for data: 1154432
I0223 23:00:43.385675  3602 layer_factory.hpp:77] Creating layer cont_4_lstm1_cont_slice_3_split
I0223 23:00:43.385679  3602 net.cpp:100] Creating Layer cont_4_lstm1_cont_slice_3_split
I0223 23:00:43.385680  3602 net.cpp:434] cont_4_lstm1_cont_slice_3_split <- cont_4
I0223 23:00:43.385684  3602 net.cpp:408] cont_4_lstm1_cont_slice_3_split -> cont_4_lstm1_cont_slice_3_split_0
I0223 23:00:43.385689  3602 net.cpp:408] cont_4_lstm1_cont_slice_3_split -> cont_4_lstm1_cont_slice_3_split_1
I0223 23:00:43.385706  3602 net.cpp:150] Setting up cont_4_lstm1_cont_slice_3_split
I0223 23:00:43.385710  3602 net.cpp:157] Top shape: 1 16 (16)
I0223 23:00:43.385712  3602 net.cpp:157] Top shape: 1 16 (16)
I0223 23:00:43.385715  3602 net.cpp:165] Memory required for data: 1154560
I0223 23:00:43.385717  3602 layer_factory.hpp:77] Creating layer cont_5_lstm1_cont_slice_4_split
I0223 23:00:43.385720  3602 net.cpp:100] Creating Layer cont_5_lstm1_cont_slice_4_split
I0223 23:00:43.385723  3602 net.cpp:434] cont_5_lstm1_cont_slice_4_split <- cont_5
I0223 23:00:43.385727  3602 net.cpp:408] cont_5_lstm1_cont_slice_4_split -> cont_5_lstm1_cont_slice_4_split_0
I0223 23:00:43.385730  3602 net.cpp:408] cont_5_lstm1_cont_slice_4_split -> cont_5_lstm1_cont_slice_4_split_1
I0223 23:00:43.385747  3602 net.cpp:150] Setting up cont_5_lstm1_cont_slice_4_split
I0223 23:00:43.385751  3602 net.cpp:157] Top shape: 1 16 (16)
I0223 23:00:43.385753  3602 net.cpp:157] Top shape: 1 16 (16)
I0223 23:00:43.385756  3602 net.cpp:165] Memory required for data: 1154688
I0223 23:00:43.385758  3602 layer_factory.hpp:77] Creating layer cont_6_lstm1_cont_slice_5_split
I0223 23:00:43.385761  3602 net.cpp:100] Creating Layer cont_6_lstm1_cont_slice_5_split
I0223 23:00:43.385764  3602 net.cpp:434] cont_6_lstm1_cont_slice_5_split <- cont_6
I0223 23:00:43.385767  3602 net.cpp:408] cont_6_lstm1_cont_slice_5_split -> cont_6_lstm1_cont_slice_5_split_0
I0223 23:00:43.385771  3602 net.cpp:408] cont_6_lstm1_cont_slice_5_split -> cont_6_lstm1_cont_slice_5_split_1
I0223 23:00:43.385787  3602 net.cpp:150] Setting up cont_6_lstm1_cont_slice_5_split
I0223 23:00:43.385792  3602 net.cpp:157] Top shape: 1 16 (16)
I0223 23:00:43.385794  3602 net.cpp:157] Top shape: 1 16 (16)
I0223 23:00:43.385797  3602 net.cpp:165] Memory required for data: 1154816
I0223 23:00:43.385799  3602 layer_factory.hpp:77] Creating layer cont_7_lstm1_cont_slice_6_split
I0223 23:00:43.385802  3602 net.cpp:100] Creating Layer cont_7_lstm1_cont_slice_6_split
I0223 23:00:43.385804  3602 net.cpp:434] cont_7_lstm1_cont_slice_6_split <- cont_7
I0223 23:00:43.385808  3602 net.cpp:408] cont_7_lstm1_cont_slice_6_split -> cont_7_lstm1_cont_slice_6_split_0
I0223 23:00:43.385813  3602 net.cpp:408] cont_7_lstm1_cont_slice_6_split -> cont_7_lstm1_cont_slice_6_split_1
I0223 23:00:43.385831  3602 net.cpp:150] Setting up cont_7_lstm1_cont_slice_6_split
I0223 23:00:43.385835  3602 net.cpp:157] Top shape: 1 16 (16)
I0223 23:00:43.385838  3602 net.cpp:157] Top shape: 1 16 (16)
I0223 23:00:43.385841  3602 net.cpp:165] Memory required for data: 1154944
I0223 23:00:43.385846  3602 layer_factory.hpp:77] Creating layer cont_8_lstm1_cont_slice_7_split
I0223 23:00:43.385849  3602 net.cpp:100] Creating Layer cont_8_lstm1_cont_slice_7_split
I0223 23:00:43.385852  3602 net.cpp:434] cont_8_lstm1_cont_slice_7_split <- cont_8
I0223 23:00:43.385855  3602 net.cpp:408] cont_8_lstm1_cont_slice_7_split -> cont_8_lstm1_cont_slice_7_split_0
I0223 23:00:43.385859  3602 net.cpp:408] cont_8_lstm1_cont_slice_7_split -> cont_8_lstm1_cont_slice_7_split_1
I0223 23:00:43.385875  3602 net.cpp:150] Setting up cont_8_lstm1_cont_slice_7_split
I0223 23:00:43.385879  3602 net.cpp:157] Top shape: 1 16 (16)
I0223 23:00:43.385882  3602 net.cpp:157] Top shape: 1 16 (16)
I0223 23:00:43.385885  3602 net.cpp:165] Memory required for data: 1155072
I0223 23:00:43.385887  3602 layer_factory.hpp:77] Creating layer cont_9_lstm1_cont_slice_8_split
I0223 23:00:43.385890  3602 net.cpp:100] Creating Layer cont_9_lstm1_cont_slice_8_split
I0223 23:00:43.385892  3602 net.cpp:434] cont_9_lstm1_cont_slice_8_split <- cont_9
I0223 23:00:43.385895  3602 net.cpp:408] cont_9_lstm1_cont_slice_8_split -> cont_9_lstm1_cont_slice_8_split_0
I0223 23:00:43.385900  3602 net.cpp:408] cont_9_lstm1_cont_slice_8_split -> cont_9_lstm1_cont_slice_8_split_1
I0223 23:00:43.385916  3602 net.cpp:150] Setting up cont_9_lstm1_cont_slice_8_split
I0223 23:00:43.385921  3602 net.cpp:157] Top shape: 1 16 (16)
I0223 23:00:43.385923  3602 net.cpp:157] Top shape: 1 16 (16)
I0223 23:00:43.385926  3602 net.cpp:165] Memory required for data: 1155200
I0223 23:00:43.385927  3602 layer_factory.hpp:77] Creating layer cont_10_lstm1_cont_slice_9_split
I0223 23:00:43.385931  3602 net.cpp:100] Creating Layer cont_10_lstm1_cont_slice_9_split
I0223 23:00:43.385933  3602 net.cpp:434] cont_10_lstm1_cont_slice_9_split <- cont_10
I0223 23:00:43.385937  3602 net.cpp:408] cont_10_lstm1_cont_slice_9_split -> cont_10_lstm1_cont_slice_9_split_0
I0223 23:00:43.385941  3602 net.cpp:408] cont_10_lstm1_cont_slice_9_split -> cont_10_lstm1_cont_slice_9_split_1
I0223 23:00:43.385957  3602 net.cpp:150] Setting up cont_10_lstm1_cont_slice_9_split
I0223 23:00:43.385962  3602 net.cpp:157] Top shape: 1 16 (16)
I0223 23:00:43.385964  3602 net.cpp:157] Top shape: 1 16 (16)
I0223 23:00:43.385967  3602 net.cpp:165] Memory required for data: 1155328
I0223 23:00:43.385969  3602 layer_factory.hpp:77] Creating layer cont_11_lstm1_cont_slice_10_split
I0223 23:00:43.385972  3602 net.cpp:100] Creating Layer cont_11_lstm1_cont_slice_10_split
I0223 23:00:43.385974  3602 net.cpp:434] cont_11_lstm1_cont_slice_10_split <- cont_11
I0223 23:00:43.385978  3602 net.cpp:408] cont_11_lstm1_cont_slice_10_split -> cont_11_lstm1_cont_slice_10_split_0
I0223 23:00:43.385982  3602 net.cpp:408] cont_11_lstm1_cont_slice_10_split -> cont_11_lstm1_cont_slice_10_split_1
I0223 23:00:43.385999  3602 net.cpp:150] Setting up cont_11_lstm1_cont_slice_10_split
I0223 23:00:43.386003  3602 net.cpp:157] Top shape: 1 16 (16)
I0223 23:00:43.386005  3602 net.cpp:157] Top shape: 1 16 (16)
I0223 23:00:43.386008  3602 net.cpp:165] Memory required for data: 1155456
I0223 23:00:43.386010  3602 layer_factory.hpp:77] Creating layer cont_12_lstm1_cont_slice_11_split
I0223 23:00:43.386013  3602 net.cpp:100] Creating Layer cont_12_lstm1_cont_slice_11_split
I0223 23:00:43.386015  3602 net.cpp:434] cont_12_lstm1_cont_slice_11_split <- cont_12
I0223 23:00:43.386019  3602 net.cpp:408] cont_12_lstm1_cont_slice_11_split -> cont_12_lstm1_cont_slice_11_split_0
I0223 23:00:43.386023  3602 net.cpp:408] cont_12_lstm1_cont_slice_11_split -> cont_12_lstm1_cont_slice_11_split_1
I0223 23:00:43.386039  3602 net.cpp:150] Setting up cont_12_lstm1_cont_slice_11_split
I0223 23:00:43.386044  3602 net.cpp:157] Top shape: 1 16 (16)
I0223 23:00:43.386046  3602 net.cpp:157] Top shape: 1 16 (16)
I0223 23:00:43.386049  3602 net.cpp:165] Memory required for data: 1155584
I0223 23:00:43.386050  3602 layer_factory.hpp:77] Creating layer cont_13_lstm1_cont_slice_12_split
I0223 23:00:43.386056  3602 net.cpp:100] Creating Layer cont_13_lstm1_cont_slice_12_split
I0223 23:00:43.386061  3602 net.cpp:434] cont_13_lstm1_cont_slice_12_split <- cont_13
I0223 23:00:43.386065  3602 net.cpp:408] cont_13_lstm1_cont_slice_12_split -> cont_13_lstm1_cont_slice_12_split_0
I0223 23:00:43.386068  3602 net.cpp:408] cont_13_lstm1_cont_slice_12_split -> cont_13_lstm1_cont_slice_12_split_1
I0223 23:00:43.386085  3602 net.cpp:150] Setting up cont_13_lstm1_cont_slice_12_split
I0223 23:00:43.386090  3602 net.cpp:157] Top shape: 1 16 (16)
I0223 23:00:43.386092  3602 net.cpp:157] Top shape: 1 16 (16)
I0223 23:00:43.386095  3602 net.cpp:165] Memory required for data: 1155712
I0223 23:00:43.386097  3602 layer_factory.hpp:77] Creating layer cont_14_lstm1_cont_slice_13_split
I0223 23:00:43.386101  3602 net.cpp:100] Creating Layer cont_14_lstm1_cont_slice_13_split
I0223 23:00:43.386103  3602 net.cpp:434] cont_14_lstm1_cont_slice_13_split <- cont_14
I0223 23:00:43.386106  3602 net.cpp:408] cont_14_lstm1_cont_slice_13_split -> cont_14_lstm1_cont_slice_13_split_0
I0223 23:00:43.386111  3602 net.cpp:408] cont_14_lstm1_cont_slice_13_split -> cont_14_lstm1_cont_slice_13_split_1
I0223 23:00:43.386126  3602 net.cpp:150] Setting up cont_14_lstm1_cont_slice_13_split
I0223 23:00:43.386131  3602 net.cpp:157] Top shape: 1 16 (16)
I0223 23:00:43.386133  3602 net.cpp:157] Top shape: 1 16 (16)
I0223 23:00:43.386135  3602 net.cpp:165] Memory required for data: 1155840
I0223 23:00:43.386138  3602 layer_factory.hpp:77] Creating layer cont_15_lstm1_cont_slice_14_split
I0223 23:00:43.386140  3602 net.cpp:100] Creating Layer cont_15_lstm1_cont_slice_14_split
I0223 23:00:43.386143  3602 net.cpp:434] cont_15_lstm1_cont_slice_14_split <- cont_15
I0223 23:00:43.386147  3602 net.cpp:408] cont_15_lstm1_cont_slice_14_split -> cont_15_lstm1_cont_slice_14_split_0
I0223 23:00:43.386152  3602 net.cpp:408] cont_15_lstm1_cont_slice_14_split -> cont_15_lstm1_cont_slice_14_split_1
I0223 23:00:43.386168  3602 net.cpp:150] Setting up cont_15_lstm1_cont_slice_14_split
I0223 23:00:43.386171  3602 net.cpp:157] Top shape: 1 16 (16)
I0223 23:00:43.386174  3602 net.cpp:157] Top shape: 1 16 (16)
I0223 23:00:43.386176  3602 net.cpp:165] Memory required for data: 1155968
I0223 23:00:43.386179  3602 layer_factory.hpp:77] Creating layer cont_16_lstm1_cont_slice_15_split
I0223 23:00:43.386183  3602 net.cpp:100] Creating Layer cont_16_lstm1_cont_slice_15_split
I0223 23:00:43.386185  3602 net.cpp:434] cont_16_lstm1_cont_slice_15_split <- cont_16
I0223 23:00:43.386188  3602 net.cpp:408] cont_16_lstm1_cont_slice_15_split -> cont_16_lstm1_cont_slice_15_split_0
I0223 23:00:43.386193  3602 net.cpp:408] cont_16_lstm1_cont_slice_15_split -> cont_16_lstm1_cont_slice_15_split_1
I0223 23:00:43.386209  3602 net.cpp:150] Setting up cont_16_lstm1_cont_slice_15_split
I0223 23:00:43.386214  3602 net.cpp:157] Top shape: 1 16 (16)
I0223 23:00:43.386215  3602 net.cpp:157] Top shape: 1 16 (16)
I0223 23:00:43.386219  3602 net.cpp:165] Memory required for data: 1156096
I0223 23:00:43.386220  3602 layer_factory.hpp:77] Creating layer lstm1_x_transform
I0223 23:00:43.386656  3602 net.cpp:100] Creating Layer lstm1_x_transform
I0223 23:00:43.386662  3602 net.cpp:434] lstm1_x_transform <- x
I0223 23:00:43.386665  3602 net.cpp:408] lstm1_x_transform -> W_xc_x
I0223 23:00:43.405333  3602 net.cpp:150] Setting up lstm1_x_transform
I0223 23:00:43.405366  3602 net.cpp:157] Top shape: 16 16 4000 (1024000)
I0223 23:00:43.405370  3602 net.cpp:165] Memory required for data: 5252096
I0223 23:00:43.405393  3602 layer_factory.hpp:77] Creating layer lstm1_W_xc_x_slice
I0223 23:00:43.405403  3602 net.cpp:100] Creating Layer lstm1_W_xc_x_slice
I0223 23:00:43.405407  3602 net.cpp:434] lstm1_W_xc_x_slice <- W_xc_x
I0223 23:00:43.405411  3602 net.cpp:408] lstm1_W_xc_x_slice -> W_xc_x_1
I0223 23:00:43.405418  3602 net.cpp:408] lstm1_W_xc_x_slice -> W_xc_x_2
…
I0223 23:00:43.405465  3602 net.cpp:408] lstm1_W_xc_x_slice -> W_xc_x_10
I0223 23:00:43.405470  3602 net.cpp:408] lstm1_W_xc_x_slice -> W_xc_x_11
I0223 23:00:43.405474  3602 net.cpp:408] lstm1_W_xc_x_slice -> W_xc_x_12
I0223 23:00:43.405483  3602 net.cpp:408] lstm1_W_xc_x_slice -> W_xc_x_13
I0223 23:00:43.405488  3602 net.cpp:408] lstm1_W_xc_x_slice -> W_xc_x_14
I0223 23:00:43.405491  3602 net.cpp:408] lstm1_W_xc_x_slice -> W_xc_x_15
I0223 23:00:43.405495  3602 net.cpp:408] lstm1_W_xc_x_slice -> W_xc_x_16
I0223 23:00:43.405596  3602 net.cpp:150] Setting up lstm1_W_xc_x_slice
I0223 23:00:43.405601  3602 net.cpp:157] Top shape: 1 16 4000 (64000)
I0223 23:00:43.405603  3602 net.cpp:157] Top shape: 1 16 4000 (64000)
I0223 23:00:43.405606  3602 net.cpp:157] Top shape: 1 16 4000 (64000)
I0223 23:00:43.405609  3602 net.cpp:157] Top shape: 1 16 4000 (64000)
I0223 23:00:43.405612  3602 net.cpp:157] Top shape: 1 16 4000 (64000)
I0223 23:00:43.405614  3602 net.cpp:157] Top shape: 1 16 4000 (64000)
I0223 23:00:43.405617  3602 net.cpp:157] Top shape: 1 16 4000 (64000)
I0223 23:00:43.405621  3602 net.cpp:157] Top shape: 1 16 4000 (64000)
I0223 23:00:43.405623  3602 net.cpp:157] Top shape: 1 16 4000 (64000)
I0223 23:00:43.405625  3602 net.cpp:157] Top shape: 1 16 4000 (64000)
I0223 23:00:43.405628  3602 net.cpp:157] Top shape: 1 16 4000 (64000)
I0223 23:00:43.405632  3602 net.cpp:157] Top shape: 1 16 4000 (64000)
I0223 23:00:43.405634  3602 net.cpp:157] Top shape: 1 16 4000 (64000)
I0223 23:00:43.405637  3602 net.cpp:157] Top shape: 1 16 4000 (64000)
I0223 23:00:43.405640  3602 net.cpp:157] Top shape: 1 16 4000 (64000)
I0223 23:00:43.405642  3602 net.cpp:157] Top shape: 1 16 4000 (64000)
I0223 23:00:43.405645  3602 net.cpp:165] Memory required for data: 9348096
I0223 23:00:43.405647  3602 layer_factory.hpp:77] Creating layer lstm1_h_conted_0
I0223 23:00:43.406064  3602 net.cpp:100] Creating Layer lstm1_h_conted_0
I0223 23:00:43.406069  3602 net.cpp:434] lstm1_h_conted_0 <- h_0
I0223 23:00:43.406072  3602 net.cpp:434] lstm1_h_conted_0 <- cont_1_lstm1_cont_slice_0_split_0
I0223 23:00:43.406077  3602 net.cpp:408] lstm1_h_conted_0 -> h_conted_0
I0223 23:00:43.406540  3602 net.cpp:150] Setting up lstm1_h_conted_0
I0223 23:00:43.406549  3602 net.cpp:157] Top shape: 1 16 1000 (16000)
I0223 23:00:43.406553  3602 net.cpp:165] Memory required for data: 9412096
I0223 23:00:43.406554  3602 layer_factory.hpp:77] Creating layer lstm1_transform_1
I0223 23:00:43.406560  3602 net.cpp:100] Creating Layer lstm1_transform_1
I0223 23:00:43.406564  3602 net.cpp:434] lstm1_transform_1 <- h_conted_0
I0223 23:00:43.406569  3602 net.cpp:408] lstm1_transform_1 -> W_hc_h_0
I0223 23:00:43.424228  3602 net.cpp:150] Setting up lstm1_transform_1
I0223 23:00:43.424264  3602 net.cpp:157] Top shape: 1 16 4000 (64000)
I0223 23:00:43.424268  3602 net.cpp:165] Memory required for data: 9668096
I0223 23:00:43.424291  3602 layer_factory.hpp:77] Creating layer lstm1_gate_input_1
I0223 23:00:43.424299  3602 net.cpp:100] Creating Layer lstm1_gate_input_1
I0223 23:00:43.424304  3602 net.cpp:434] lstm1_gate_input_1 <- W_hc_h_0
I0223 23:00:43.424307  3602 net.cpp:434] lstm1_gate_input_1 <- W_xc_x_1
I0223 23:00:43.424312  3602 net.cpp:408] lstm1_gate_input_1 -> gate_input_1
I0223 23:00:43.424337  3602 net.cpp:150] Setting up lstm1_gate_input_1
I0223 23:00:43.424341  3602 net.cpp:157] Top shape: 1 16 4000 (64000)
I0223 23:00:43.424343  3602 net.cpp:165] Memory required for data: 9924096
I0223 23:00:43.424346  3602 layer_factory.hpp:77] Creating layer lstm1_unit_1
I0223 23:00:43.424682  3602 net.cpp:100] Creating Layer lstm1_unit_1
I0223 23:00:43.424688  3602 net.cpp:434] lstm1_unit_1 <- c_0
I0223 23:00:43.424691  3602 net.cpp:434] lstm1_unit_1 <- gate_input_1
I0223 23:00:43.424700  3602 net.cpp:434] lstm1_unit_1 <- cont_1_lstm1_cont_slice_0_split_1
I0223 23:00:43.424710  3602 net.cpp:408] lstm1_unit_1 -> c_1
I0223 23:00:43.424715  3602 net.cpp:408] lstm1_unit_1 -> h_1
I0223 23:00:43.424742  3602 net.cpp:150] Setting up lstm1_unit_1
I0223 23:00:43.424747  3602 net.cpp:157] Top shape: 1 16 1000 (16000)
I0223 23:00:43.424751  3602 net.cpp:157] Top shape: 1 16 1000 (16000)
I0223 23:00:43.424752  3602 net.cpp:165] Memory required for data: 10052096
I0223 23:00:43.424756  3602 layer_factory.hpp:77] Creating layer h_1_lstm1_unit_1_1_split
I0223 23:00:43.424759  3602 net.cpp:100] Creating Layer h_1_lstm1_unit_1_1_split
I0223 23:00:43.424762  3602 net.cpp:434] h_1_lstm1_unit_1_1_split <- h_1
I0223 23:00:43.424765  3602 net.cpp:408] h_1_lstm1_unit_1_1_split -> h_1_lstm1_unit_1_1_split_0
I0223 23:00:43.424769  3602 net.cpp:408] h_1_lstm1_unit_1_1_split -> h_1_lstm1_unit_1_1_split_1
I0223 23:00:43.424788  3602 net.cpp:150] Setting up h_1_lstm1_unit_1_1_split
I0223 23:00:43.424793  3602 net.cpp:157] Top shape: 1 16 1000 (16000)
I0223 23:00:43.424795  3602 net.cpp:157] Top shape: 1 16 1000 (16000)
I0223 23:00:43.424798  3602 net.cpp:165] Memory required for data: 10180096
I0223 23:00:43.424800  3602 layer_factory.hpp:77] Creating layer lstm1_h_conted_1
I0223 23:00:43.424805  3602 net.cpp:100] Creating Layer lstm1_h_conted_1
I0223 23:00:43.424808  3602 net.cpp:434] lstm1_h_conted_1 <- h_1_lstm1_unit_1_1_split_0
I0223 23:00:43.424811  3602 net.cpp:434] lstm1_h_conted_1 <- cont_2_lstm1_cont_slice_1_split_0
I0223 23:00:43.424815  3602 net.cpp:408] lstm1_h_conted_1 -> h_conted_1
I0223 23:00:43.424854  3602 net.cpp:150] Setting up lstm1_h_conted_1
I0223 23:00:43.424859  3602 net.cpp:157] Top shape: 1 16 1000 (16000)
I0223 23:00:43.424860  3602 net.cpp:165] Memory required for data: 10244096
I0223 23:00:43.424863  3602 layer_factory.hpp:77] Creating layer lstm1_transform_2
I0223 23:00:43.424870  3602 net.cpp:100] Creating Layer lstm1_transform_2
I0223 23:00:43.424871  3602 net.cpp:434] lstm1_transform_2 <- h_conted_1
I0223 23:00:43.424875  3602 net.cpp:408] lstm1_transform_2 -> W_hc_h_1
I0223 23:00:43.442713  3602 net.cpp:150] Setting up lstm1_transform_2
I0223 23:00:43.442747  3602 net.cpp:157] Top shape: 1 16 4000 (64000)
I0223 23:00:43.442750  3602 net.cpp:165] Memory required for data: 10500096
I0223 23:00:43.442755  3602 net.cpp:493] Sharing parameters 'W_hc' owned by layer 'lstm1_transform_1', param index 0
I0223 23:00:43.442759  3602 layer_factory.hpp:77] Creating layer lstm1_gate_input_2
I0223 23:00:43.442765  3602 net.cpp:100] Creating Layer lstm1_gate_input_2
I0223 23:00:43.442770  3602 net.cpp:434] lstm1_gate_input_2 <- W_hc_h_1
I0223 23:00:43.442787  3602 net.cpp:434] lstm1_gate_input_2 <- W_xc_x_2
I0223 23:00:43.442791  3602 net.cpp:408] lstm1_gate_input_2 -> gate_input_2
I0223 23:00:43.442814  3602 net.cpp:150] Setting up lstm1_gate_input_2
I0223 23:00:43.442819  3602 net.cpp:157] Top shape: 1 16 4000 (64000)
I0223 23:00:43.442821  3602 net.cpp:165] Memory required for data: 10756096
I0223 23:00:43.442823  3602 layer_factory.hpp:77] Creating layer lstm1_unit_2
I0223 23:00:43.442827  3602 net.cpp:100] Creating Layer lstm1_unit_2
I0223 23:00:43.442831  3602 net.cpp:434] lstm1_unit_2 <- c_1
I0223 23:00:43.442834  3602 net.cpp:434] lstm1_unit_2 <- gate_input_2
I0223 23:00:43.442838  3602 net.cpp:434] lstm1_unit_2 <- cont_2_lstm1_cont_slice_1_split_1
I0223 23:00:43.442842  3602 net.cpp:408] lstm1_unit_2 -> c_2
I0223 23:00:43.442847  3602 net.cpp:408] lstm1_unit_2 -> h_2
I0223 23:00:43.442873  3602 net.cpp:150] Setting up lstm1_unit_2
I0223 23:00:43.442876  3602 net.cpp:157] Top shape: 1 16 1000 (16000)
I0223 23:00:43.442879  3602 net.cpp:157] Top shape: 1 16 1000 (16000)
I0223 23:00:43.442881  3602 net.cpp:165] Memory required for data: 10884096
I0223 23:00:43.442884  3602 layer_factory.hpp:77] Creating layer h_2_lstm1_unit_2_1_split
I0223 23:00:43.442888  3602 net.cpp:100] Creating Layer h_2_lstm1_unit_2_1_split
I0223 23:00:43.442891  3602 net.cpp:434] h_2_lstm1_unit_2_1_split <- h_2
I0223 23:00:43.442899  3602 net.cpp:408] h_2_lstm1_unit_2_1_split -> h_2_lstm1_unit_2_1_split_0
I0223 23:00:43.442909  3602 net.cpp:408] h_2_lstm1_unit_2_1_split -> h_2_lstm1_unit_2_1_split_1
I0223 23:00:43.442927  3602 net.cpp:150] Setting up h_2_lstm1_unit_2_1_split
I0223 23:00:43.442931  3602 net.cpp:157] Top shape: 1 16 1000 (16000)
I0223 23:00:43.442934  3602 net.cpp:157] Top shape: 1 16 1000 (16000)
I0223 23:00:43.442937  3602 net.cpp:165] Memory required for data: 11012096
I0223 23:00:43.442939  3602 layer_factory.hpp:77] Creating layer lstm1_h_conted_2
I0223 23:00:43.442944  3602 net.cpp:100] Creating Layer lstm1_h_conted_2
I0223 23:00:43.442946  3602 net.cpp:434] lstm1_h_conted_2 <- h_2_lstm1_unit_2_1_split_0
I0223 23:00:43.442950  3602 net.cpp:434] lstm1_h_conted_2 <- cont_3_lstm1_cont_slice_2_split_0
I0223 23:00:43.442955  3602 net.cpp:408] lstm1_h_conted_2 -> h_conted_2
I0223 23:00:43.442993  3602 net.cpp:150] Setting up lstm1_h_conted_2
I0223 23:00:43.442998  3602 net.cpp:157] Top shape: 1 16 1000 (16000)
I0223 23:00:43.443001  3602 net.cpp:165] Memory required for data: 11076096
I0223 23:00:43.443003  3602 layer_factory.hpp:77] Creating layer lstm1_transform_3
I0223 23:00:43.443011  3602 net.cpp:100] Creating Layer lstm1_transform_3
I0223 23:00:43.443013  3602 net.cpp:434] lstm1_transform_3 <- h_conted_2
I0223 23:00:43.443018  3602 net.cpp:408] lstm1_transform_3 -> W_hc_h_2
I0223 23:00:43.460767  3602 net.cpp:150] Setting up lstm1_transform_3
I0223 23:00:43.460788  3602 net.cpp:157] Top shape: 1 16 4000 (64000)
I0223 23:00:43.460805  3602 net.cpp:165] Memory required for data: 11332096
I0223 23:00:43.460813  3602 net.cpp:493] Sharing parameters 'W_hc' owned by layer 'lstm1_transform_1', param index 0
I0223 23:00:43.460817  3602 layer_factory.hpp:77] Creating layer lstm1_gate_input_3
I0223 23:00:43.460825  3602 net.cpp:100] Creating Layer lstm1_gate_input_3
I0223 23:00:43.460829  3602 net.cpp:434] lstm1_gate_input_3 <- W_hc_h_2
I0223 23:00:43.460834  3602 net.cpp:434] lstm1_gate_input_3 <- W_xc_x_3
I0223 23:00:43.460851  3602 net.cpp:408] lstm1_gate_input_3 -> gate_input_3
I0223 23:00:43.460875  3602 net.cpp:150] Setting up lstm1_gate_input_3
I0223 23:00:43.460878  3602 net.cpp:157] Top shape: 1 16 4000 (64000)
I0223 23:00:43.460880  3602 net.cpp:165] Memory required for data: 11588096
I0223 23:00:43.460883  3602 layer_factory.hpp:77] Creating layer lstm1_unit_3
I0223 23:00:43.460888  3602 net.cpp:100] Creating Layer lstm1_unit_3
I0223 23:00:43.460892  3602 net.cpp:434] lstm1_unit_3 <- c_2
I0223 23:00:43.460896  3602 net.cpp:434] lstm1_unit_3 <- gate_input_3
I0223 23:00:43.460899  3602 net.cpp:434] lstm1_unit_3 <- cont_3_lstm1_cont_slice_2_split_1
I0223 23:00:43.460903  3602 net.cpp:408] lstm1_unit_3 -> c_3
I0223 23:00:43.460907  3602 net.cpp:408] lstm1_unit_3 -> h_3
I0223 23:00:43.460932  3602 net.cpp:150] Setting up lstm1_unit_3
I0223 23:00:43.460937  3602 net.cpp:157] Top shape: 1 16 1000 (16000)
I0223 23:00:43.460939  3602 net.cpp:157] Top shape: 1 16 1000 (16000)
I0223 23:00:43.460942  3602 net.cpp:165] Memory required for data: 11716096
I0223 23:00:43.460943  3602 layer_factory.hpp:77] Creating layer h_3_lstm1_unit_3_1_split
I0223 23:00:43.460947  3602 net.cpp:100] Creating Layer h_3_lstm1_unit_3_1_split
I0223 23:00:43.460950  3602 net.cpp:434] h_3_lstm1_unit_3_1_split <- h_3
I0223 23:00:43.460953  3602 net.cpp:408] h_3_lstm1_unit_3_1_split -> h_3_lstm1_unit_3_1_split_0
I0223 23:00:43.460958  3602 net.cpp:408] h_3_lstm1_unit_3_1_split -> h_3_lstm1_unit_3_1_split_1
I0223 23:00:43.460978  3602 net.cpp:150] Setting up h_3_lstm1_unit_3_1_split
I0223 23:00:43.460981  3602 net.cpp:157] Top shape: 1 16 1000 (16000)
I0223 23:00:43.460984  3602 net.cpp:157] Top shape: 1 16 1000 (16000)
I0223 23:00:43.460986  3602 net.cpp:165] Memory required for data: 11844096
I0223 23:00:43.460989  3602 layer_factory.hpp:77] Creating layer lstm1_h_conted_3
I0223 23:00:43.460994  3602 net.cpp:100] Creating Layer lstm1_h_conted_3
I0223 23:00:43.460996  3602 net.cpp:434] lstm1_h_conted_3 <- h_3_lstm1_unit_3_1_split_0
I0223 23:00:43.461005  3602 net.cpp:434] lstm1_h_conted_3 <- cont_4_lstm1_cont_slice_3_split_0
I0223 23:00:43.461014  3602 net.cpp:408] lstm1_h_conted_3 -> h_conted_3
I0223 23:00:43.461052  3602 net.cpp:150] Setting up lstm1_h_conted_3
I0223 23:00:43.461057  3602 net.cpp:157] Top shape: 1 16 1000 (16000)
I0223 23:00:43.461060  3602 net.cpp:165] Memory required for data: 11908096
I0223 23:00:43.461061  3602 layer_factory.hpp:77] Creating layer lstm1_transform_4
I0223 23:00:43.461067  3602 net.cpp:100] Creating Layer lstm1_transform_4
I0223 23:00:43.461071  3602 net.cpp:434] lstm1_transform_4 <- h_conted_3
I0223 23:00:43.461074  3602 net.cpp:408] lstm1_transform_4 -> W_hc_h_3
I0223 23:00:43.479298  3602 net.cpp:150] Setting up lstm1_transform_4
I0223 23:00:43.479333  3602 net.cpp:157] Top shape: 1 16 4000 (64000)
I0223 23:00:43.479337  3602 net.cpp:165] Memory required for data: 12164096
I0223 23:00:43.479342  3602 net.cpp:493] Sharing parameters 'W_hc' owned by layer 'lstm1_transform_1', param index 0
I0223 23:00:43.479346  3602 layer_factory.hpp:77] Creating layer lstm1_gate_input_4
I0223 23:00:43.479367  3602 net.cpp:100] Creating Layer lstm1_gate_input_4
I0223 23:00:43.479370  3602 net.cpp:434] lstm1_gate_input_4 <- W_hc_h_3
I0223 23:00:43.479374  3602 net.cpp:434] lstm1_gate_input_4 <- W_xc_x_4
I0223 23:00:43.479379  3602 net.cpp:408] lstm1_gate_input_4 -> gate_input_4
I0223 23:00:43.479404  3602 net.cpp:150] Setting up lstm1_gate_input_4
I0223 23:00:43.479408  3602 net.cpp:157] Top shape: 1 16 4000 (64000)
I0223 23:00:43.479410  3602 net.cpp:165] Memory required for data: 12420096
I0223 23:00:43.479413  3602 layer_factory.hpp:77] Creating layer lstm1_unit_4
I0223 23:00:43.479418  3602 net.cpp:100] Creating Layer lstm1_unit_4
I0223 23:00:43.479420  3602 net.cpp:434] lstm1_unit_4 <- c_3
I0223 23:00:43.479424  3602 net.cpp:434] lstm1_unit_4 <- gate_input_4
I0223 23:00:43.479429  3602 net.cpp:434] lstm1_unit_4 <- cont_4_lstm1_cont_slice_3_split_1
I0223 23:00:43.479431  3602 net.cpp:408] lstm1_unit_4 -> c_4
I0223 23:00:43.479436  3602 net.cpp:408] lstm1_unit_4 -> h_4
I0223 23:00:43.479465  3602 net.cpp:150] Setting up lstm1_unit_4
I0223 23:00:43.479470  3602 net.cpp:157] Top shape: 1 16 1000 (16000)
I0223 23:00:43.479472  3602 net.cpp:157] Top shape: 1 16 1000 (16000)
I0223 23:00:43.479475  3602 net.cpp:165] Memory required for data: 12548096
I0223 23:00:43.479477  3602 layer_factory.hpp:77] Creating layer h_4_lstm1_unit_4_1_split
I0223 23:00:43.479482  3602 net.cpp:100] Creating Layer h_4_lstm1_unit_4_1_split
I0223 23:00:43.479485  3602 net.cpp:434] h_4_lstm1_unit_4_1_split <- h_4
I0223 23:00:43.479488  3602 net.cpp:408] h_4_lstm1_unit_4_1_split -> h_4_lstm1_unit_4_1_split_0
I0223 23:00:43.479492  3602 net.cpp:408] h_4_lstm1_unit_4_1_split -> h_4_lstm1_unit_4_1_split_1
I0223 23:00:43.479511  3602 net.cpp:150] Setting up h_4_lstm1_unit_4_1_split
I0223 23:00:43.479516  3602 net.cpp:157] Top shape: 1 16 1000 (16000)
I0223 23:00:43.479518  3602 net.cpp:157] Top shape: 1 16 1000 (16000)
I0223 23:00:43.479521  3602 net.cpp:165] Memory required for data: 12676096
I0223 23:00:43.479522  3602 layer_factory.hpp:77] Creating layer lstm1_h_conted_4
I0223 23:00:43.479527  3602 net.cpp:100] Creating Layer lstm1_h_conted_4
I0223 23:00:43.479531  3602 net.cpp:434] lstm1_h_conted_4 <- h_4_lstm1_unit_4_1_split_0
I0223 23:00:43.479533  3602 net.cpp:434] lstm1_h_conted_4 <- cont_5_lstm1_cont_slice_4_split_0
I0223 23:00:43.479537  3602 net.cpp:408] lstm1_h_conted_4 -> h_conted_4
I0223 23:00:43.479576  3602 net.cpp:150] Setting up lstm1_h_conted_4
I0223 23:00:43.479580  3602 net.cpp:157] Top shape: 1 16 1000 (16000)
I0223 23:00:43.479583  3602 net.cpp:165] Memory required for data: 12740096
I0223 23:00:43.479585  3602 layer_factory.hpp:77] Creating layer lstm1_transform_5
I0223 23:00:43.479590  3602 net.cpp:100] Creating Layer lstm1_transform_5
I0223 23:00:43.479593  3602 net.cpp:434] lstm1_transform_5 <- h_conted_4
I0223 23:00:43.479598  3602 net.cpp:408] lstm1_transform_5 -> W_hc_h_4
I0223 23:00:43.497618  3602 net.cpp:150] Setting up lstm1_transform_5
I0223 23:00:43.497643  3602 net.cpp:157] Top shape: 1 16 4000 (64000)
I0223 23:00:43.497651  3602 net.cpp:165] Memory required for data: 12996096
I0223 23:00:43.497656  3602 net.cpp:493] Sharing parameters 'W_hc' owned by layer 'lstm1_transform_1', param index 0
I0223 23:00:43.497661  3602 layer_factory.hpp:77] Creating layer lstm1_gate_input_5
I0223 23:00:43.497668  3602 net.cpp:100] Creating Layer lstm1_gate_input_5
I0223 23:00:43.497673  3602 net.cpp:434] lstm1_gate_input_5 <- W_hc_h_4
I0223 23:00:43.497678  3602 net.cpp:434] lstm1_gate_input_5 <- W_xc_x_5
I0223 23:00:43.497683  3602 net.cpp:408] lstm1_gate_input_5 -> gate_input_5
I0223 23:00:43.497705  3602 net.cpp:150] Setting up lstm1_gate_input_5
I0223 23:00:43.497709  3602 net.cpp:157] Top shape: 1 16 4000 (64000)
I0223 23:00:43.497712  3602 net.cpp:165] Memory required for data: 13252096
I0223 23:00:43.497714  3602 layer_factory.hpp:77] Creating layer lstm1_unit_5
I0223 23:00:43.497720  3602 net.cpp:100] Creating Layer lstm1_unit_5
I0223 23:00:43.497722  3602 net.cpp:434] lstm1_unit_5 <- c_4
I0223 23:00:43.497725  3602 net.cpp:434] lstm1_unit_5 <- gate_input_5
I0223 23:00:43.497730  3602 net.cpp:434] lstm1_unit_5 <- cont_5_lstm1_cont_slice_4_split_1
I0223 23:00:43.497735  3602 net.cpp:408] lstm1_unit_5 -> c_5
I0223 23:00:43.497740  3602 net.cpp:408] lstm1_unit_5 -> h_5
I0223 23:00:43.497764  3602 net.cpp:150] Setting up lstm1_unit_5
I0223 23:00:43.497769  3602 net.cpp:157] Top shape: 1 16 1000 (16000)
I0223 23:00:43.497772  3602 net.cpp:157] Top shape: 1 16 1000 (16000)
I0223 23:00:43.497774  3602 net.cpp:165] Memory required for data: 13380096
I0223 23:00:43.497776  3602 layer_factory.hpp:77] Creating layer h_5_lstm1_unit_5_1_split
I0223 23:00:43.497781  3602 net.cpp:100] Creating Layer h_5_lstm1_unit_5_1_split
I0223 23:00:43.497783  3602 net.cpp:434] h_5_lstm1_unit_5_1_split <- h_5
I0223 23:00:43.497786  3602 net.cpp:408] h_5_lstm1_unit_5_1_split -> h_5_lstm1_unit_5_1_split_0
I0223 23:00:43.497791  3602 net.cpp:408] h_5_lstm1_unit_5_1_split -> h_5_lstm1_unit_5_1_split_1
I0223 23:00:43.497809  3602 net.cpp:150] Setting up h_5_lstm1_unit_5_1_split
I0223 23:00:43.497813  3602 net.cpp:157] Top shape: 1 16 1000 (16000)
I0223 23:00:43.497817  3602 net.cpp:157] Top shape: 1 16 1000 (16000)
I0223 23:00:43.497818  3602 net.cpp:165] Memory required for data: 13508096
I0223 23:00:43.497822  3602 layer_factory.hpp:77] Creating layer lstm1_h_conted_5
I0223 23:00:43.497826  3602 net.cpp:100] Creating Layer lstm1_h_conted_5
I0223 23:00:43.497829  3602 net.cpp:434] lstm1_h_conted_5 <- h_5_lstm1_unit_5_1_split_0
I0223 23:00:43.497833  3602 net.cpp:434] lstm1_h_conted_5 <- cont_6_lstm1_cont_slice_5_split_0
I0223 23:00:43.497838  3602 net.cpp:408] lstm1_h_conted_5 -> h_conted_5
I0223 23:00:43.497879  3602 net.cpp:150] Setting up lstm1_h_conted_5
I0223 23:00:43.497884  3602 net.cpp:157] Top shape: 1 16 1000 (16000)
I0223 23:00:43.497885  3602 net.cpp:165] Memory required for data: 13572096
I0223 23:00:43.497887  3602 layer_factory.hpp:77] Creating layer lstm1_transform_6
I0223 23:00:43.497894  3602 net.cpp:100] Creating Layer lstm1_transform_6
I0223 23:00:43.497896  3602 net.cpp:434] lstm1_transform_6 <- h_conted_5
I0223 23:00:43.497900  3602 net.cpp:408] lstm1_transform_6 -> W_hc_h_5
I0223 23:00:43.515930  3602 net.cpp:150] Setting up lstm1_transform_6
I0223 23:00:43.515966  3602 net.cpp:157] Top shape: 1 16 4000 (64000)
I0223 23:00:43.515970  3602 net.cpp:165] Memory required for data: 13828096
I0223 23:00:43.515975  3602 net.cpp:493] Sharing parameters 'W_hc' owned by layer 'lstm1_transform_1', param index 0
I0223 23:00:43.515980  3602 layer_factory.hpp:77] Creating layer lstm1_gate_input_6
I0223 23:00:43.516000  3602 net.cpp:100] Creating Layer lstm1_gate_input_6
I0223 23:00:43.516005  3602 net.cpp:434] lstm1_gate_input_6 <- W_hc_h_5
I0223 23:00:43.516010  3602 net.cpp:434] lstm1_gate_input_6 <- W_xc_x_6
I0223 23:00:43.516014  3602 net.cpp:408] lstm1_gate_input_6 -> gate_input_6
I0223 23:00:43.516041  3602 net.cpp:150] Setting up lstm1_gate_input_6
I0223 23:00:43.516049  3602 net.cpp:157] Top shape: 1 16 4000 (64000)
I0223 23:00:43.516057  3602 net.cpp:165] Memory required for data: 14084096
I0223 23:00:43.516059  3602 layer_factory.hpp:77] Creating layer lstm1_unit_6
I0223 23:00:43.516064  3602 net.cpp:100] Creating Layer lstm1_unit_6
I0223 23:00:43.516067  3602 net.cpp:434] lstm1_unit_6 <- c_5
I0223 23:00:43.516070  3602 net.cpp:434] lstm1_unit_6 <- gate_input_6
I0223 23:00:43.516074  3602 net.cpp:434] lstm1_unit_6 <- cont_6_lstm1_cont_slice_5_split_1
I0223 23:00:43.516078  3602 net.cpp:408] lstm1_unit_6 -> c_6
I0223 23:00:43.516083  3602 net.cpp:408] lstm1_unit_6 -> h_6
I0223 23:00:43.516108  3602 net.cpp:150] Setting up lstm1_unit_6
I0223 23:00:43.516113  3602 net.cpp:157] Top shape: 1 16 1000 (16000)
I0223 23:00:43.516116  3602 net.cpp:157] Top shape: 1 16 1000 (16000)
I0223 23:00:43.516119  3602 net.cpp:165] Memory required for data: 14212096
I0223 23:00:43.516121  3602 layer_factory.hpp:77] Creating layer h_6_lstm1_unit_6_1_split
I0223 23:00:43.516125  3602 net.cpp:100] Creating Layer h_6_lstm1_unit_6_1_split
I0223 23:00:43.516129  3602 net.cpp:434] h_6_lstm1_unit_6_1_split <- h_6
I0223 23:00:43.516132  3602 net.cpp:408] h_6_lstm1_unit_6_1_split -> h_6_lstm1_unit_6_1_split_0
I0223 23:00:43.516136  3602 net.cpp:408] h_6_lstm1_unit_6_1_split -> h_6_lstm1_unit_6_1_split_1
I0223 23:00:43.516155  3602 net.cpp:150] Setting up h_6_lstm1_unit_6_1_split
I0223 23:00:43.516158  3602 net.cpp:157] Top shape: 1 16 1000 (16000)
I0223 23:00:43.516161  3602 net.cpp:157] Top shape: 1 16 1000 (16000)
I0223 23:00:43.516163  3602 net.cpp:165] Memory required for data: 14340096
I0223 23:00:43.516166  3602 layer_factory.hpp:77] Creating layer lstm1_h_conted_6
I0223 23:00:43.516170  3602 net.cpp:100] Creating Layer lstm1_h_conted_6
I0223 23:00:43.516172  3602 net.cpp:434] lstm1_h_conted_6 <- h_6_lstm1_unit_6_1_split_0
I0223 23:00:43.516176  3602 net.cpp:434] lstm1_h_conted_6 <- cont_7_lstm1_cont_slice_6_split_0
I0223 23:00:43.516180  3602 net.cpp:408] lstm1_h_conted_6 -> h_conted_6
I0223 23:00:43.516219  3602 net.cpp:150] Setting up lstm1_h_conted_6
I0223 23:00:43.516223  3602 net.cpp:157] Top shape: 1 16 1000 (16000)
I0223 23:00:43.516225  3602 net.cpp:165] Memory required for data: 14404096
I0223 23:00:43.516228  3602 layer_factory.hpp:77] Creating layer lstm1_transform_7
I0223 23:00:43.516234  3602 net.cpp:100] Creating Layer lstm1_transform_7
I0223 23:00:43.516237  3602 net.cpp:434] lstm1_transform_7 <- h_conted_6
I0223 23:00:43.516240  3602 net.cpp:408] lstm1_transform_7 -> W_hc_h_6
I0223 23:00:43.534183  3602 net.cpp:150] Setting up lstm1_transform_7
I0223 23:00:43.534217  3602 net.cpp:157] Top shape: 1 16 4000 (64000)
I0223 23:00:43.534220  3602 net.cpp:165] Memory required for data: 14660096
I0223 23:00:43.534241  3602 net.cpp:493] Sharing parameters 'W_hc' owned by layer 'lstm1_transform_1', param index 0
I0223 23:00:43.534246  3602 layer_factory.hpp:77] Creating layer lstm1_gate_input_7
I0223 23:00:43.534253  3602 net.cpp:100] Creating Layer lstm1_gate_input_7
I0223 23:00:43.534257  3602 net.cpp:434] lstm1_gate_input_7 <- W_hc_h_6
I0223 23:00:43.534263  3602 net.cpp:434] lstm1_gate_input_7 <- W_xc_x_7
I0223 23:00:43.534268  3602 net.cpp:408] lstm1_gate_input_7 -> gate_input_7
I0223 23:00:43.534292  3602 net.cpp:150] Setting up lstm1_gate_input_7
I0223 23:00:43.534296  3602 net.cpp:157] Top shape: 1 16 4000 (64000)
I0223 23:00:43.534298  3602 net.cpp:165] Memory required for data: 14916096
I0223 23:00:43.534301  3602 layer_factory.hpp:77] Creating layer lstm1_unit_7
I0223 23:00:43.534306  3602 net.cpp:100] Creating Layer lstm1_unit_7
I0223 23:00:43.534308  3602 net.cpp:434] lstm1_unit_7 <- c_6
I0223 23:00:43.534312  3602 net.cpp:434] lstm1_unit_7 <- gate_input_7
I0223 23:00:43.534315  3602 net.cpp:434] lstm1_unit_7 <- cont_7_lstm1_cont_slice_6_split_1
I0223 23:00:43.534320  3602 net.cpp:408] lstm1_unit_7 -> c_7
I0223 23:00:43.534324  3602 net.cpp:408] lstm1_unit_7 -> h_7
I0223 23:00:43.534350  3602 net.cpp:150] Setting up lstm1_unit_7
I0223 23:00:43.534354  3602 net.cpp:157] Top shape: 1 16 1000 (16000)
I0223 23:00:43.534363  3602 net.cpp:157] Top shape: 1 16 1000 (16000)
I0223 23:00:43.534369  3602 net.cpp:165] Memory required for data: 15044096
I0223 23:00:43.534371  3602 layer_factory.hpp:77] Creating layer h_7_lstm1_unit_7_1_split
I0223 23:00:43.534375  3602 net.cpp:100] Creating Layer h_7_lstm1_unit_7_1_split
I0223 23:00:43.534379  3602 net.cpp:434] h_7_lstm1_unit_7_1_split <- h_7
I0223 23:00:43.534381  3602 net.cpp:408] h_7_lstm1_unit_7_1_split -> h_7_lstm1_unit_7_1_split_0
I0223 23:00:43.534385  3602 net.cpp:408] h_7_lstm1_unit_7_1_split -> h_7_lstm1_unit_7_1_split_1
I0223 23:00:43.534404  3602 net.cpp:150] Setting up h_7_lstm1_unit_7_1_split
I0223 23:00:43.534409  3602 net.cpp:157] Top shape: 1 16 1000 (16000)
I0223 23:00:43.534411  3602 net.cpp:157] Top shape: 1 16 1000 (16000)
I0223 23:00:43.534415  3602 net.cpp:165] Memory required for data: 15172096
I0223 23:00:43.534416  3602 layer_factory.hpp:77] Creating layer lstm1_h_conted_7
I0223 23:00:43.534420  3602 net.cpp:100] Creating Layer lstm1_h_conted_7
I0223 23:00:43.534423  3602 net.cpp:434] lstm1_h_conted_7 <- h_7_lstm1_unit_7_1_split_0
I0223 23:00:43.534426  3602 net.cpp:434] lstm1_h_conted_7 <- cont_8_lstm1_cont_slice_7_split_0
I0223 23:00:43.534431  3602 net.cpp:408] lstm1_h_conted_7 -> h_conted_7
I0223 23:00:43.534476  3602 net.cpp:150] Setting up lstm1_h_conted_7
I0223 23:00:43.534482  3602 net.cpp:157] Top shape: 1 16 1000 (16000)
I0223 23:00:43.534483  3602 net.cpp:165] Memory required for data: 15236096
I0223 23:00:43.534487  3602 layer_factory.hpp:77] Creating layer lstm1_transform_8
I0223 23:00:43.534492  3602 net.cpp:100] Creating Layer lstm1_transform_8
I0223 23:00:43.534494  3602 net.cpp:434] lstm1_transform_8 <- h_conted_7
I0223 23:00:43.534498  3602 net.cpp:408] lstm1_transform_8 -> W_hc_h_7
I0223 23:00:43.552121  3602 net.cpp:150] Setting up lstm1_transform_8
I0223 23:00:43.552156  3602 net.cpp:157] Top shape: 1 16 4000 (64000)
I0223 23:00:43.552160  3602 net.cpp:165] Memory required for data: 15492096
I0223 23:00:43.552165  3602 net.cpp:493] Sharing parameters 'W_hc' owned by layer 'lstm1_transform_1', param index 0
I0223 23:00:43.552170  3602 layer_factory.hpp:77] Creating layer lstm1_gate_input_8
I0223 23:00:43.552189  3602 net.cpp:100] Creating Layer lstm1_gate_input_8
I0223 23:00:43.552193  3602 net.cpp:434] lstm1_gate_input_8 <- W_hc_h_7
I0223 23:00:43.552198  3602 net.cpp:434] lstm1_gate_input_8 <- W_xc_x_8
I0223 23:00:43.552202  3602 net.cpp:408] lstm1_gate_input_8 -> gate_input_8
I0223 23:00:43.552225  3602 net.cpp:150] Setting up lstm1_gate_input_8
I0223 23:00:43.552229  3602 net.cpp:157] Top shape: 1 16 4000 (64000)
I0223 23:00:43.552232  3602 net.cpp:165] Memory required for data: 15748096
I0223 23:00:43.552233  3602 layer_factory.hpp:77] Creating layer lstm1_unit_8
I0223 23:00:43.552243  3602 net.cpp:100] Creating Layer lstm1_unit_8
I0223 23:00:43.552247  3602 net.cpp:434] lstm1_unit_8 <- c_7
I0223 23:00:43.552250  3602 net.cpp:434] lstm1_unit_8 <- gate_input_8
I0223 23:00:43.552254  3602 net.cpp:434] lstm1_unit_8 <- cont_8_lstm1_cont_slice_7_split_1
I0223 23:00:43.552258  3602 net.cpp:408] lstm1_unit_8 -> c_8
I0223 23:00:43.552263  3602 net.cpp:408] lstm1_unit_8 -> h_8
I0223 23:00:43.552287  3602 net.cpp:150] Setting up lstm1_unit_8
I0223 23:00:43.552292  3602 net.cpp:157] Top shape: 1 16 1000 (16000)
I0223 23:00:43.552295  3602 net.cpp:157] Top shape: 1 16 1000 (16000)
I0223 23:00:43.552297  3602 net.cpp:165] Memory required for data: 15876096
I0223 23:00:43.552299  3602 layer_factory.hpp:77] Creating layer h_8_lstm1_unit_8_1_split
I0223 23:00:43.552304  3602 net.cpp:100] Creating Layer h_8_lstm1_unit_8_1_split
I0223 23:00:43.552306  3602 net.cpp:434] h_8_lstm1_unit_8_1_split <- h_8
I0223 23:00:43.552310  3602 net.cpp:408] h_8_lstm1_unit_8_1_split -> h_8_lstm1_unit_8_1_split_0
I0223 23:00:43.552314  3602 net.cpp:408] h_8_lstm1_unit_8_1_split -> h_8_lstm1_unit_8_1_split_1
I0223 23:00:43.552333  3602 net.cpp:150] Setting up h_8_lstm1_unit_8_1_split
I0223 23:00:43.552336  3602 net.cpp:157] Top shape: 1 16 1000 (16000)
I0223 23:00:43.552345  3602 net.cpp:157] Top shape: 1 16 1000 (16000)
I0223 23:00:43.552352  3602 net.cpp:165] Memory required for data: 16004096
I0223 23:00:43.552355  3602 layer_factory.hpp:77] Creating layer lstm1_h_conted_8
I0223 23:00:43.552359  3602 net.cpp:100] Creating Layer lstm1_h_conted_8
I0223 23:00:43.552361  3602 net.cpp:434] lstm1_h_conted_8 <- h_8_lstm1_unit_8_1_split_0
I0223 23:00:43.552366  3602 net.cpp:434] lstm1_h_conted_8 <- cont_9_lstm1_cont_slice_8_split_0
I0223 23:00:43.552369  3602 net.cpp:408] lstm1_h_conted_8 -> h_conted_8
I0223 23:00:43.552408  3602 net.cpp:150] Setting up lstm1_h_conted_8
I0223 23:00:43.552412  3602 net.cpp:157] Top shape: 1 16 1000 (16000)
I0223 23:00:43.552415  3602 net.cpp:165] Memory required for data: 16068096
I0223 23:00:43.552417  3602 layer_factory.hpp:77] Creating layer lstm1_transform_9
I0223 23:00:43.552423  3602 net.cpp:100] Creating Layer lstm1_transform_9
I0223 23:00:43.552426  3602 net.cpp:434] lstm1_transform_9 <- h_conted_8
I0223 23:00:43.552430  3602 net.cpp:408] lstm1_transform_9 -> W_hc_h_8
I0223 23:00:43.570372  3602 net.cpp:150] Setting up lstm1_transform_9
I0223 23:00:43.570392  3602 net.cpp:157] Top shape: 1 16 4000 (64000)
I0223 23:00:43.570395  3602 net.cpp:165] Memory required for data: 16324096
I0223 23:00:43.570400  3602 net.cpp:493] Sharing parameters 'W_hc' owned by layer 'lstm1_transform_1', param index 0
I0223 23:00:43.570403  3602 layer_factory.hpp:77] Creating layer lstm1_gate_input_9
I0223 23:00:43.570410  3602 net.cpp:100] Creating Layer lstm1_gate_input_9
I0223 23:00:43.570415  3602 net.cpp:434] lstm1_gate_input_9 <- W_hc_h_8
I0223 23:00:43.570418  3602 net.cpp:434] lstm1_gate_input_9 <- W_xc_x_9
I0223 23:00:43.570425  3602 net.cpp:408] lstm1_gate_input_9 -> gate_input_9
I0223 23:00:43.570447  3602 net.cpp:150] Setting up lstm1_gate_input_9
I0223 23:00:43.570451  3602 net.cpp:157] Top shape: 1 16 4000 (64000)
I0223 23:00:43.570453  3602 net.cpp:165] Memory required for data: 16580096
I0223 23:00:43.570458  3602 layer_factory.hpp:77] Creating layer lstm1_unit_9
I0223 23:00:43.570467  3602 net.cpp:100] Creating Layer lstm1_unit_9
I0223 23:00:43.570472  3602 net.cpp:434] lstm1_unit_9 <- c_8
I0223 23:00:43.570475  3602 net.cpp:434] lstm1_unit_9 <- gate_input_9
I0223 23:00:43.570478  3602 net.cpp:434] lstm1_unit_9 <- cont_9_lstm1_cont_slice_8_split_1
I0223 23:00:43.570482  3602 net.cpp:408] lstm1_unit_9 -> c_9
I0223 23:00:43.570493  3602 net.cpp:408] lstm1_unit_9 -> h_9
I0223 23:00:43.570521  3602 net.cpp:150] Setting up lstm1_unit_9
I0223 23:00:43.570526  3602 net.cpp:157] Top shape: 1 16 1000 (16000)
I0223 23:00:43.570529  3602 net.cpp:157] Top shape: 1 16 1000 (16000)
I0223 23:00:43.570531  3602 net.cpp:165] Memory required for data: 16708096
I0223 23:00:43.570534  3602 layer_factory.hpp:77] Creating layer h_9_lstm1_unit_9_1_split
I0223 23:00:43.570538  3602 net.cpp:100] Creating Layer h_9_lstm1_unit_9_1_split
I0223 23:00:43.570541  3602 net.cpp:434] h_9_lstm1_unit_9_1_split <- h_9
I0223 23:00:43.570545  3602 net.cpp:408] h_9_lstm1_unit_9_1_split -> h_9_lstm1_unit_9_1_split_0
I0223 23:00:43.570549  3602 net.cpp:408] h_9_lstm1_unit_9_1_split -> h_9_lstm1_unit_9_1_split_1
I0223 23:00:43.570567  3602 net.cpp:150] Setting up h_9_lstm1_unit_9_1_split
I0223 23:00:43.570571  3602 net.cpp:157] Top shape: 1 16 1000 (16000)
I0223 23:00:43.570574  3602 net.cpp:157] Top shape: 1 16 1000 (16000)
I0223 23:00:43.570577  3602 net.cpp:165] Memory required for data: 16836096
I0223 23:00:43.570580  3602 layer_factory.hpp:77] Creating layer lstm1_h_conted_9
I0223 23:00:43.570585  3602 net.cpp:100] Creating Layer lstm1_h_conted_9
I0223 23:00:43.570587  3602 net.cpp:434] lstm1_h_conted_9 <- h_9_lstm1_unit_9_1_split_0
I0223 23:00:43.570591  3602 net.cpp:434] lstm1_h_conted_9 <- cont_10_lstm1_cont_slice_9_split_0
I0223 23:00:43.570595  3602 net.cpp:408] lstm1_h_conted_9 -> h_conted_9
I0223 23:00:43.570637  3602 net.cpp:150] Setting up lstm1_h_conted_9
I0223 23:00:43.570641  3602 net.cpp:157] Top shape: 1 16 1000 (16000)
I0223 23:00:43.570643  3602 net.cpp:165] Memory required for data: 16900096
I0223 23:00:43.570655  3602 layer_factory.hpp:77] Creating layer lstm1_transform_10
I0223 23:00:43.570662  3602 net.cpp:100] Creating Layer lstm1_transform_10
I0223 23:00:43.570664  3602 net.cpp:434] lstm1_transform_10 <- h_conted_9
I0223 23:00:43.570668  3602 net.cpp:408] lstm1_transform_10 -> W_hc_h_9
I0223 23:00:43.588865  3602 net.cpp:150] Setting up lstm1_transform_10
I0223 23:00:43.588901  3602 net.cpp:157] Top shape: 1 16 4000 (64000)
I0223 23:00:43.588906  3602 net.cpp:165] Memory required for data: 17156096
I0223 23:00:43.588923  3602 net.cpp:493] Sharing parameters 'W_hc' owned by layer 'lstm1_transform_1', param index 0
I0223 23:00:43.588927  3602 layer_factory.hpp:77] Creating layer lstm1_gate_input_10
I0223 23:00:43.588934  3602 net.cpp:100] Creating Layer lstm1_gate_input_10
I0223 23:00:43.588938  3602 net.cpp:434] lstm1_gate_input_10 <- W_hc_h_9
I0223 23:00:43.588943  3602 net.cpp:434] lstm1_gate_input_10 <- W_xc_x_10
I0223 23:00:43.588948  3602 net.cpp:408] lstm1_gate_input_10 -> gate_input_10
I0223 23:00:43.588973  3602 net.cpp:150] Setting up lstm1_gate_input_10
I0223 23:00:43.588977  3602 net.cpp:157] Top shape: 1 16 4000 (64000)
I0223 23:00:43.588979  3602 net.cpp:165] Memory required for data: 17412096
I0223 23:00:43.588982  3602 layer_factory.hpp:77] Creating layer lstm1_unit_10
I0223 23:00:43.588986  3602 net.cpp:100] Creating Layer lstm1_unit_10
I0223 23:00:43.588990  3602 net.cpp:434] lstm1_unit_10 <- c_9
I0223 23:00:43.588994  3602 net.cpp:434] lstm1_unit_10 <- gate_input_10
I0223 23:00:43.588997  3602 net.cpp:434] lstm1_unit_10 <- cont_10_lstm1_cont_slice_9_split_1
I0223 23:00:43.589001  3602 net.cpp:408] lstm1_unit_10 -> c_10
I0223 23:00:43.589005  3602 net.cpp:408] lstm1_unit_10 -> h_10
I0223 23:00:43.589031  3602 net.cpp:150] Setting up lstm1_unit_10
I0223 23:00:43.589035  3602 net.cpp:157] Top shape: 1 16 1000 (16000)
I0223 23:00:43.589038  3602 net.cpp:157] Top shape: 1 16 1000 (16000)
I0223 23:00:43.589041  3602 net.cpp:165] Memory required for data: 17540096
I0223 23:00:43.589043  3602 layer_factory.hpp:77] Creating layer h_10_lstm1_unit_10_1_split
I0223 23:00:43.589048  3602 net.cpp:100] Creating Layer h_10_lstm1_unit_10_1_split
I0223 23:00:43.589051  3602 net.cpp:434] h_10_lstm1_unit_10_1_split <- h_10
I0223 23:00:43.589056  3602 net.cpp:408] h_10_lstm1_unit_10_1_split -> h_10_lstm1_unit_10_1_split_0
I0223 23:00:43.589059  3602 net.cpp:408] h_10_lstm1_unit_10_1_split -> h_10_lstm1_unit_10_1_split_1
I0223 23:00:43.589079  3602 net.cpp:150] Setting up h_10_lstm1_unit_10_1_split
I0223 23:00:43.589083  3602 net.cpp:157] Top shape: 1 16 1000 (16000)
I0223 23:00:43.589087  3602 net.cpp:157] Top shape: 1 16 1000 (16000)
I0223 23:00:43.589088  3602 net.cpp:165] Memory required for data: 17668096
I0223 23:00:43.589090  3602 layer_factory.hpp:77] Creating layer lstm1_h_conted_10
I0223 23:00:43.589095  3602 net.cpp:100] Creating Layer lstm1_h_conted_10
I0223 23:00:43.589097  3602 net.cpp:434] lstm1_h_conted_10 <- h_10_lstm1_unit_10_1_split_0
I0223 23:00:43.589102  3602 net.cpp:434] lstm1_h_conted_10 <- cont_11_lstm1_cont_slice_10_split_0
I0223 23:00:43.589105  3602 net.cpp:408] lstm1_h_conted_10 -> h_conted_10
I0223 23:00:43.589146  3602 net.cpp:150] Setting up lstm1_h_conted_10
I0223 23:00:43.589151  3602 net.cpp:157] Top shape: 1 16 1000 (16000)
I0223 23:00:43.589154  3602 net.cpp:165] Memory required for data: 17732096
I0223 23:00:43.589156  3602 layer_factory.hpp:77] Creating layer lstm1_transform_11
I0223 23:00:43.589161  3602 net.cpp:100] Creating Layer lstm1_transform_11
I0223 23:00:43.589164  3602 net.cpp:434] lstm1_transform_11 <- h_conted_10
I0223 23:00:43.589167  3602 net.cpp:408] lstm1_transform_11 -> W_hc_h_10
I0223 23:00:43.608335  3602 net.cpp:150] Setting up lstm1_transform_11
I0223 23:00:43.608361  3602 net.cpp:157] Top shape: 1 16 4000 (64000)
I0223 23:00:43.608366  3602 net.cpp:165] Memory required for data: 17988096
I0223 23:00:43.608374  3602 net.cpp:493] Sharing parameters 'W_hc' owned by layer 'lstm1_transform_1', param index 0
I0223 23:00:43.608386  3602 layer_factory.hpp:77] Creating layer lstm1_gate_input_11
I0223 23:00:43.608403  3602 net.cpp:100] Creating Layer lstm1_gate_input_11
I0223 23:00:43.608410  3602 net.cpp:434] lstm1_gate_input_11 <- W_hc_h_10
I0223 23:00:43.608417  3602 net.cpp:434] lstm1_gate_input_11 <- W_xc_x_11
I0223 23:00:43.608428  3602 net.cpp:408] lstm1_gate_input_11 -> gate_input_11
I0223 23:00:43.608460  3602 net.cpp:150] Setting up lstm1_gate_input_11
I0223 23:00:43.608469  3602 net.cpp:157] Top shape: 1 16 4000 (64000)
I0223 23:00:43.608472  3602 net.cpp:165] Memory required for data: 18244096
I0223 23:00:43.608476  3602 layer_factory.hpp:77] Creating layer lstm1_unit_11
I0223 23:00:43.608482  3602 net.cpp:100] Creating Layer lstm1_unit_11
I0223 23:00:43.608487  3602 net.cpp:434] lstm1_unit_11 <- c_10
I0223 23:00:43.608494  3602 net.cpp:434] lstm1_unit_11 <- gate_input_11
I0223 23:00:43.608499  3602 net.cpp:434] lstm1_unit_11 <- cont_11_lstm1_cont_slice_10_split_1
I0223 23:00:43.608506  3602 net.cpp:408] lstm1_unit_11 -> c_11
I0223 23:00:43.608513  3602 net.cpp:408] lstm1_unit_11 -> h_11
I0223 23:00:43.608542  3602 net.cpp:150] Setting up lstm1_unit_11
I0223 23:00:43.608547  3602 net.cpp:157] Top shape: 1 16 1000 (16000)
I0223 23:00:43.608551  3602 net.cpp:157] Top shape: 1 16 1000 (16000)
I0223 23:00:43.608552  3602 net.cpp:165] Memory required for data: 18372096
I0223 23:00:43.608556  3602 layer_factory.hpp:77] Creating layer h_11_lstm1_unit_11_1_split
I0223 23:00:43.608559  3602 net.cpp:100] Creating Layer h_11_lstm1_unit_11_1_split
I0223 23:00:43.608562  3602 net.cpp:434] h_11_lstm1_unit_11_1_split <- h_11
I0223 23:00:43.608566  3602 net.cpp:408] h_11_lstm1_unit_11_1_split -> h_11_lstm1_unit_11_1_split_0
I0223 23:00:43.608572  3602 net.cpp:408] h_11_lstm1_unit_11_1_split -> h_11_lstm1_unit_11_1_split_1
I0223 23:00:43.608599  3602 net.cpp:150] Setting up h_11_lstm1_unit_11_1_split
I0223 23:00:43.608608  3602 net.cpp:157] Top shape: 1 16 1000 (16000)
I0223 23:00:43.608613  3602 net.cpp:157] Top shape: 1 16 1000 (16000)
I0223 23:00:43.608618  3602 net.cpp:165] Memory required for data: 18500096
I0223 23:00:43.608623  3602 layer_factory.hpp:77] Creating layer lstm1_h_conted_11
I0223 23:00:43.608629  3602 net.cpp:100] Creating Layer lstm1_h_conted_11
I0223 23:00:43.608634  3602 net.cpp:434] lstm1_h_conted_11 <- h_11_lstm1_unit_11_1_split_0
I0223 23:00:43.608640  3602 net.cpp:434] lstm1_h_conted_11 <- cont_12_lstm1_cont_slice_11_split_0
I0223 23:00:43.608649  3602 net.cpp:408] lstm1_h_conted_11 -> h_conted_11
I0223 23:00:43.608713  3602 net.cpp:150] Setting up lstm1_h_conted_11
I0223 23:00:43.608721  3602 net.cpp:157] Top shape: 1 16 1000 (16000)
I0223 23:00:43.608724  3602 net.cpp:165] Memory required for data: 18564096
I0223 23:00:43.608727  3602 layer_factory.hpp:77] Creating layer lstm1_transform_12
I0223 23:00:43.608733  3602 net.cpp:100] Creating Layer lstm1_transform_12
I0223 23:00:43.608737  3602 net.cpp:434] lstm1_transform_12 <- h_conted_11
I0223 23:00:43.608741  3602 net.cpp:408] lstm1_transform_12 -> W_hc_h_11
I0223 23:00:43.627609  3602 net.cpp:150] Setting up lstm1_transform_12
I0223 23:00:43.627641  3602 net.cpp:157] Top shape: 1 16 4000 (64000)
I0223 23:00:43.627645  3602 net.cpp:165] Memory required for data: 18820096
I0223 23:00:43.627651  3602 net.cpp:493] Sharing parameters 'W_hc' owned by layer 'lstm1_transform_1', param index 0
I0223 23:00:43.627655  3602 layer_factory.hpp:77] Creating layer lstm1_gate_input_12
I0223 23:00:43.627662  3602 net.cpp:100] Creating Layer lstm1_gate_input_12
I0223 23:00:43.627666  3602 net.cpp:434] lstm1_gate_input_12 <- W_hc_h_11
I0223 23:00:43.627671  3602 net.cpp:434] lstm1_gate_input_12 <- W_xc_x_12
I0223 23:00:43.627676  3602 net.cpp:408] lstm1_gate_input_12 -> gate_input_12
I0223 23:00:43.627713  3602 net.cpp:150] Setting up lstm1_gate_input_12
I0223 23:00:43.627717  3602 net.cpp:157] Top shape: 1 16 4000 (64000)
I0223 23:00:43.627720  3602 net.cpp:165] Memory required for data: 19076096
I0223 23:00:43.627722  3602 layer_factory.hpp:77] Creating layer lstm1_unit_12
I0223 23:00:43.627732  3602 net.cpp:100] Creating Layer lstm1_unit_12
I0223 23:00:43.627740  3602 net.cpp:434] lstm1_unit_12 <- c_11
I0223 23:00:43.627743  3602 net.cpp:434] lstm1_unit_12 <- gate_input_12
I0223 23:00:43.627748  3602 net.cpp:434] lstm1_unit_12 <- cont_12_lstm1_cont_slice_11_split_1
I0223 23:00:43.627751  3602 net.cpp:408] lstm1_unit_12 -> c_12
I0223 23:00:43.627756  3602 net.cpp:408] lstm1_unit_12 -> h_12
I0223 23:00:43.627784  3602 net.cpp:150] Setting up lstm1_unit_12
I0223 23:00:43.627789  3602 net.cpp:157] Top shape: 1 16 1000 (16000)
I0223 23:00:43.627791  3602 net.cpp:157] Top shape: 1 16 1000 (16000)
I0223 23:00:43.627794  3602 net.cpp:165] Memory required for data: 19204096
I0223 23:00:43.627796  3602 layer_factory.hpp:77] Creating layer h_12_lstm1_unit_12_1_split
I0223 23:00:43.627800  3602 net.cpp:100] Creating Layer h_12_lstm1_unit_12_1_split
I0223 23:00:43.627804  3602 net.cpp:434] h_12_lstm1_unit_12_1_split <- h_12
I0223 23:00:43.627807  3602 net.cpp:408] h_12_lstm1_unit_12_1_split -> h_12_lstm1_unit_12_1_split_0
I0223 23:00:43.627812  3602 net.cpp:408] h_12_lstm1_unit_12_1_split -> h_12_lstm1_unit_12_1_split_1
I0223 23:00:43.627831  3602 net.cpp:150] Setting up h_12_lstm1_unit_12_1_split
I0223 23:00:43.627836  3602 net.cpp:157] Top shape: 1 16 1000 (16000)
I0223 23:00:43.627840  3602 net.cpp:157] Top shape: 1 16 1000 (16000)
I0223 23:00:43.627841  3602 net.cpp:165] Memory required for data: 19332096
I0223 23:00:43.627843  3602 layer_factory.hpp:77] Creating layer lstm1_h_conted_12
I0223 23:00:43.627847  3602 net.cpp:100] Creating Layer lstm1_h_conted_12
I0223 23:00:43.627851  3602 net.cpp:434] lstm1_h_conted_12 <- h_12_lstm1_unit_12_1_split_0
I0223 23:00:43.627854  3602 net.cpp:434] lstm1_h_conted_12 <- cont_13_lstm1_cont_slice_12_split_0
I0223 23:00:43.627858  3602 net.cpp:408] lstm1_h_conted_12 -> h_conted_12
I0223 23:00:43.627900  3602 net.cpp:150] Setting up lstm1_h_conted_12
I0223 23:00:43.627905  3602 net.cpp:157] Top shape: 1 16 1000 (16000)
I0223 23:00:43.627907  3602 net.cpp:165] Memory required for data: 19396096
I0223 23:00:43.627909  3602 layer_factory.hpp:77] Creating layer lstm1_transform_13
I0223 23:00:43.627915  3602 net.cpp:100] Creating Layer lstm1_transform_13
I0223 23:00:43.627918  3602 net.cpp:434] lstm1_transform_13 <- h_conted_12
I0223 23:00:43.627923  3602 net.cpp:408] lstm1_transform_13 -> W_hc_h_12
I0223 23:00:43.645833  3602 net.cpp:150] Setting up lstm1_transform_13
I0223 23:00:43.645869  3602 net.cpp:157] Top shape: 1 16 4000 (64000)
I0223 23:00:43.645871  3602 net.cpp:165] Memory required for data: 19652096
I0223 23:00:43.645876  3602 net.cpp:493] Sharing parameters 'W_hc' owned by layer 'lstm1_transform_1', param index 0
I0223 23:00:43.645880  3602 layer_factory.hpp:77] Creating layer lstm1_gate_input_13
I0223 23:00:43.645887  3602 net.cpp:100] Creating Layer lstm1_gate_input_13
I0223 23:00:43.645892  3602 net.cpp:434] lstm1_gate_input_13 <- W_hc_h_12
I0223 23:00:43.645896  3602 net.cpp:434] lstm1_gate_input_13 <- W_xc_x_13
I0223 23:00:43.645915  3602 net.cpp:408] lstm1_gate_input_13 -> gate_input_13
I0223 23:00:43.645941  3602 net.cpp:150] Setting up lstm1_gate_input_13
I0223 23:00:43.645946  3602 net.cpp:157] Top shape: 1 16 4000 (64000)
I0223 23:00:43.645947  3602 net.cpp:165] Memory required for data: 19908096
I0223 23:00:43.645949  3602 layer_factory.hpp:77] Creating layer lstm1_unit_13
I0223 23:00:43.645953  3602 net.cpp:100] Creating Layer lstm1_unit_13
I0223 23:00:43.645957  3602 net.cpp:434] lstm1_unit_13 <- c_12
I0223 23:00:43.645961  3602 net.cpp:434] lstm1_unit_13 <- gate_input_13
I0223 23:00:43.645964  3602 net.cpp:434] lstm1_unit_13 <- cont_13_lstm1_cont_slice_12_split_1
I0223 23:00:43.645968  3602 net.cpp:408] lstm1_unit_13 -> c_13
I0223 23:00:43.645973  3602 net.cpp:408] lstm1_unit_13 -> h_13
I0223 23:00:43.646000  3602 net.cpp:150] Setting up lstm1_unit_13
I0223 23:00:43.646005  3602 net.cpp:157] Top shape: 1 16 1000 (16000)
I0223 23:00:43.646008  3602 net.cpp:157] Top shape: 1 16 1000 (16000)
I0223 23:00:43.646010  3602 net.cpp:165] Memory required for data: 20036096
I0223 23:00:43.646018  3602 layer_factory.hpp:77] Creating layer h_13_lstm1_unit_13_1_split
I0223 23:00:43.646025  3602 net.cpp:100] Creating Layer h_13_lstm1_unit_13_1_split
I0223 23:00:43.646028  3602 net.cpp:434] h_13_lstm1_unit_13_1_split <- h_13
I0223 23:00:43.646033  3602 net.cpp:408] h_13_lstm1_unit_13_1_split -> h_13_lstm1_unit_13_1_split_0
I0223 23:00:43.646036  3602 net.cpp:408] h_13_lstm1_unit_13_1_split -> h_13_lstm1_unit_13_1_split_1
I0223 23:00:43.646056  3602 net.cpp:150] Setting up h_13_lstm1_unit_13_1_split
I0223 23:00:43.646060  3602 net.cpp:157] Top shape: 1 16 1000 (16000)
I0223 23:00:43.646064  3602 net.cpp:157] Top shape: 1 16 1000 (16000)
I0223 23:00:43.646065  3602 net.cpp:165] Memory required for data: 20164096
I0223 23:00:43.646069  3602 layer_factory.hpp:77] Creating layer lstm1_h_conted_13
I0223 23:00:43.646072  3602 net.cpp:100] Creating Layer lstm1_h_conted_13
I0223 23:00:43.646075  3602 net.cpp:434] lstm1_h_conted_13 <- h_13_lstm1_unit_13_1_split_0
I0223 23:00:43.646078  3602 net.cpp:434] lstm1_h_conted_13 <- cont_14_lstm1_cont_slice_13_split_0
I0223 23:00:43.646085  3602 net.cpp:408] lstm1_h_conted_13 -> h_conted_13
I0223 23:00:43.646126  3602 net.cpp:150] Setting up lstm1_h_conted_13
I0223 23:00:43.646129  3602 net.cpp:157] Top shape: 1 16 1000 (16000)
I0223 23:00:43.646132  3602 net.cpp:165] Memory required for data: 20228096
I0223 23:00:43.646134  3602 layer_factory.hpp:77] Creating layer lstm1_transform_14
I0223 23:00:43.646139  3602 net.cpp:100] Creating Layer lstm1_transform_14
I0223 23:00:43.646142  3602 net.cpp:434] lstm1_transform_14 <- h_conted_13
I0223 23:00:43.646147  3602 net.cpp:408] lstm1_transform_14 -> W_hc_h_13
I0223 23:00:43.664207  3602 net.cpp:150] Setting up lstm1_transform_14
I0223 23:00:43.664227  3602 net.cpp:157] Top shape: 1 16 4000 (64000)
I0223 23:00:43.664230  3602 net.cpp:165] Memory required for data: 20484096
I0223 23:00:43.664235  3602 net.cpp:493] Sharing parameters 'W_hc' owned by layer 'lstm1_transform_1', param index 0
I0223 23:00:43.664239  3602 layer_factory.hpp:77] Creating layer lstm1_gate_input_14
I0223 23:00:43.664247  3602 net.cpp:100] Creating Layer lstm1_gate_input_14
I0223 23:00:43.664249  3602 net.cpp:434] lstm1_gate_input_14 <- W_hc_h_13
I0223 23:00:43.664254  3602 net.cpp:434] lstm1_gate_input_14 <- W_xc_x_14
I0223 23:00:43.664260  3602 net.cpp:408] lstm1_gate_input_14 -> gate_input_14
I0223 23:00:43.664285  3602 net.cpp:150] Setting up lstm1_gate_input_14
I0223 23:00:43.664289  3602 net.cpp:157] Top shape: 1 16 4000 (64000)
I0223 23:00:43.664291  3602 net.cpp:165] Memory required for data: 20740096
I0223 23:00:43.664294  3602 layer_factory.hpp:77] Creating layer lstm1_unit_14
I0223 23:00:43.664299  3602 net.cpp:100] Creating Layer lstm1_unit_14
I0223 23:00:43.664304  3602 net.cpp:434] lstm1_unit_14 <- c_13
I0223 23:00:43.664306  3602 net.cpp:434] lstm1_unit_14 <- gate_input_14
I0223 23:00:43.664310  3602 net.cpp:434] lstm1_unit_14 <- cont_14_lstm1_cont_slice_13_split_1
I0223 23:00:43.664314  3602 net.cpp:408] lstm1_unit_14 -> c_14
I0223 23:00:43.664319  3602 net.cpp:408] lstm1_unit_14 -> h_14
I0223 23:00:43.664345  3602 net.cpp:150] Setting up lstm1_unit_14
I0223 23:00:43.664350  3602 net.cpp:157] Top shape: 1 16 1000 (16000)
I0223 23:00:43.664352  3602 net.cpp:157] Top shape: 1 16 1000 (16000)
I0223 23:00:43.664355  3602 net.cpp:165] Memory required for data: 20868096
I0223 23:00:43.664357  3602 layer_factory.hpp:77] Creating layer h_14_lstm1_unit_14_1_split
I0223 23:00:43.664361  3602 net.cpp:100] Creating Layer h_14_lstm1_unit_14_1_split
I0223 23:00:43.664364  3602 net.cpp:434] h_14_lstm1_unit_14_1_split <- h_14
I0223 23:00:43.664368  3602 net.cpp:408] h_14_lstm1_unit_14_1_split -> h_14_lstm1_unit_14_1_split_0
I0223 23:00:43.664372  3602 net.cpp:408] h_14_lstm1_unit_14_1_split -> h_14_lstm1_unit_14_1_split_1
I0223 23:00:43.664391  3602 net.cpp:150] Setting up h_14_lstm1_unit_14_1_split
I0223 23:00:43.664396  3602 net.cpp:157] Top shape: 1 16 1000 (16000)
I0223 23:00:43.664398  3602 net.cpp:157] Top shape: 1 16 1000 (16000)
I0223 23:00:43.664403  3602 net.cpp:165] Memory required for data: 20996096
I0223 23:00:43.664410  3602 layer_factory.hpp:77] Creating layer lstm1_h_conted_14
I0223 23:00:43.664415  3602 net.cpp:100] Creating Layer lstm1_h_conted_14
I0223 23:00:43.664418  3602 net.cpp:434] lstm1_h_conted_14 <- h_14_lstm1_unit_14_1_split_0
I0223 23:00:43.664422  3602 net.cpp:434] lstm1_h_conted_14 <- cont_15_lstm1_cont_slice_14_split_0
I0223 23:00:43.664427  3602 net.cpp:408] lstm1_h_conted_14 -> h_conted_14
I0223 23:00:43.664469  3602 net.cpp:150] Setting up lstm1_h_conted_14
I0223 23:00:43.664474  3602 net.cpp:157] Top shape: 1 16 1000 (16000)
I0223 23:00:43.664475  3602 net.cpp:165] Memory required for data: 21060096
I0223 23:00:43.664477  3602 layer_factory.hpp:77] Creating layer lstm1_transform_15
I0223 23:00:43.664482  3602 net.cpp:100] Creating Layer lstm1_transform_15
I0223 23:00:43.664485  3602 net.cpp:434] lstm1_transform_15 <- h_conted_14
I0223 23:00:43.664489  3602 net.cpp:408] lstm1_transform_15 -> W_hc_h_14
I0223 23:00:43.682404  3602 net.cpp:150] Setting up lstm1_transform_15
I0223 23:00:43.682423  3602 net.cpp:157] Top shape: 1 16 4000 (64000)
I0223 23:00:43.682427  3602 net.cpp:165] Memory required for data: 21316096
I0223 23:00:43.682435  3602 net.cpp:493] Sharing parameters 'W_hc' owned by layer 'lstm1_transform_1', param index 0
I0223 23:00:43.682440  3602 layer_factory.hpp:77] Creating layer lstm1_gate_input_15
I0223 23:00:43.682446  3602 net.cpp:100] Creating Layer lstm1_gate_input_15
I0223 23:00:43.682451  3602 net.cpp:434] lstm1_gate_input_15 <- W_hc_h_14
I0223 23:00:43.682454  3602 net.cpp:434] lstm1_gate_input_15 <- W_xc_x_15
I0223 23:00:43.682466  3602 net.cpp:408] lstm1_gate_input_15 -> gate_input_15
I0223 23:00:43.682492  3602 net.cpp:150] Setting up lstm1_gate_input_15
I0223 23:00:43.682497  3602 net.cpp:157] Top shape: 1 16 4000 (64000)
I0223 23:00:43.682498  3602 net.cpp:165] Memory required for data: 21572096
I0223 23:00:43.682502  3602 layer_factory.hpp:77] Creating layer lstm1_unit_15
I0223 23:00:43.682505  3602 net.cpp:100] Creating Layer lstm1_unit_15
I0223 23:00:43.682509  3602 net.cpp:434] lstm1_unit_15 <- c_14
I0223 23:00:43.682512  3602 net.cpp:434] lstm1_unit_15 <- gate_input_15
I0223 23:00:43.682515  3602 net.cpp:434] lstm1_unit_15 <- cont_15_lstm1_cont_slice_14_split_1
I0223 23:00:43.682519  3602 net.cpp:408] lstm1_unit_15 -> c_15
I0223 23:00:43.682525  3602 net.cpp:408] lstm1_unit_15 -> h_15
I0223 23:00:43.682552  3602 net.cpp:150] Setting up lstm1_unit_15
I0223 23:00:43.682556  3602 net.cpp:157] Top shape: 1 16 1000 (16000)
I0223 23:00:43.682559  3602 net.cpp:157] Top shape: 1 16 1000 (16000)
I0223 23:00:43.682561  3602 net.cpp:165] Memory required for data: 21700096
I0223 23:00:43.682564  3602 layer_factory.hpp:77] Creating layer h_15_lstm1_unit_15_1_split
I0223 23:00:43.682567  3602 net.cpp:100] Creating Layer h_15_lstm1_unit_15_1_split
I0223 23:00:43.682570  3602 net.cpp:434] h_15_lstm1_unit_15_1_split <- h_15
I0223 23:00:43.682574  3602 net.cpp:408] h_15_lstm1_unit_15_1_split -> h_15_lstm1_unit_15_1_split_0
I0223 23:00:43.682579  3602 net.cpp:408] h_15_lstm1_unit_15_1_split -> h_15_lstm1_unit_15_1_split_1
I0223 23:00:43.682597  3602 net.cpp:150] Setting up h_15_lstm1_unit_15_1_split
I0223 23:00:43.682601  3602 net.cpp:157] Top shape: 1 16 1000 (16000)
I0223 23:00:43.682605  3602 net.cpp:157] Top shape: 1 16 1000 (16000)
I0223 23:00:43.682606  3602 net.cpp:165] Memory required for data: 21828096
I0223 23:00:43.682610  3602 layer_factory.hpp:77] Creating layer lstm1_h_conted_15
I0223 23:00:43.682613  3602 net.cpp:100] Creating Layer lstm1_h_conted_15
I0223 23:00:43.682616  3602 net.cpp:434] lstm1_h_conted_15 <- h_15_lstm1_unit_15_1_split_0
I0223 23:00:43.682620  3602 net.cpp:434] lstm1_h_conted_15 <- cont_16_lstm1_cont_slice_15_split_0
I0223 23:00:43.682626  3602 net.cpp:408] lstm1_h_conted_15 -> h_conted_15
I0223 23:00:43.682667  3602 net.cpp:150] Setting up lstm1_h_conted_15
I0223 23:00:43.682672  3602 net.cpp:157] Top shape: 1 16 1000 (16000)
I0223 23:00:43.682674  3602 net.cpp:165] Memory required for data: 21892096
I0223 23:00:43.682687  3602 layer_factory.hpp:77] Creating layer lstm1_transform_16
I0223 23:00:43.682692  3602 net.cpp:100] Creating Layer lstm1_transform_16
I0223 23:00:43.682694  3602 net.cpp:434] lstm1_transform_16 <- h_conted_15
I0223 23:00:43.682699  3602 net.cpp:408] lstm1_transform_16 -> W_hc_h_15
I0223 23:00:43.700662  3602 net.cpp:150] Setting up lstm1_transform_16
I0223 23:00:43.700682  3602 net.cpp:157] Top shape: 1 16 4000 (64000)
I0223 23:00:43.700686  3602 net.cpp:165] Memory required for data: 22148096
I0223 23:00:43.700691  3602 net.cpp:493] Sharing parameters 'W_hc' owned by layer 'lstm1_transform_1', param index 0
I0223 23:00:43.700695  3602 layer_factory.hpp:77] Creating layer lstm1_gate_input_16
I0223 23:00:43.700701  3602 net.cpp:100] Creating Layer lstm1_gate_input_16
I0223 23:00:43.700706  3602 net.cpp:434] lstm1_gate_input_16 <- W_hc_h_15
I0223 23:00:43.700711  3602 net.cpp:434] lstm1_gate_input_16 <- W_xc_x_16
I0223 23:00:43.700716  3602 net.cpp:408] lstm1_gate_input_16 -> gate_input_16
I0223 23:00:43.700742  3602 net.cpp:150] Setting up lstm1_gate_input_16
I0223 23:00:43.700747  3602 net.cpp:157] Top shape: 1 16 4000 (64000)
I0223 23:00:43.700748  3602 net.cpp:165] Memory required for data: 22404096
I0223 23:00:43.700750  3602 layer_factory.hpp:77] Creating layer lstm1_unit_16
I0223 23:00:43.700757  3602 net.cpp:100] Creating Layer lstm1_unit_16
I0223 23:00:43.700759  3602 net.cpp:434] lstm1_unit_16 <- c_15
I0223 23:00:43.700763  3602 net.cpp:434] lstm1_unit_16 <- gate_input_16
I0223 23:00:43.700767  3602 net.cpp:434] lstm1_unit_16 <- cont_16_lstm1_cont_slice_15_split_1
I0223 23:00:43.700770  3602 net.cpp:408] lstm1_unit_16 -> c_16
I0223 23:00:43.700775  3602 net.cpp:408] lstm1_unit_16 -> h_16
I0223 23:00:43.700803  3602 net.cpp:150] Setting up lstm1_unit_16
I0223 23:00:43.700808  3602 net.cpp:157] Top shape: 1 16 1000 (16000)
I0223 23:00:43.700810  3602 net.cpp:157] Top shape: 1 16 1000 (16000)
I0223 23:00:43.700812  3602 net.cpp:165] Memory required for data: 22532096
I0223 23:00:43.700815  3602 layer_factory.hpp:77] Creating layer lstm1_
I0223 23:00:43.700819  3602 net.cpp:100] Creating Layer lstm1_
I0223 23:00:43.700821  3602 net.cpp:434] lstm1_ <- c_16
I0223 23:00:43.700826  3602 net.cpp:408] lstm1_ -> c_T
I0223 23:00:43.700839  3602 net.cpp:150] Setting up lstm1_
I0223 23:00:43.700842  3602 net.cpp:157] Top shape: 1 16 1000 (16000)
I0223 23:00:43.700845  3602 net.cpp:165] Memory required for data: 22596096
I0223 23:00:43.700847  3602 layer_factory.hpp:77] Creating layer lstm1_h_concat
I0223 23:00:43.700852  3602 net.cpp:100] Creating Layer lstm1_h_concat
I0223 23:00:43.700855  3602 net.cpp:434] lstm1_h_concat <- h_1_lstm1_unit_1_1_split_1
I0223 23:00:43.700860  3602 net.cpp:434] lstm1_h_concat <- h_2_lstm1_unit_2_1_split_1
…
I0223 23:00:46.211180  3602 net.cpp:358] The NetState did not contain stage 'lstm-drop' specified by a rule in layer lstm-drop
I0223 23:00:46.211290  3602 net.cpp:58] Initializing net from parameters: 
name: "lstm_language_model"
state {
  phase: TEST
  stage: "test-on-train"
}
layer {
  name: "data"
  type: "HDF5Data"
  top: "cont_sentence"
  top: "input_sentence"
  top: "target_sentence"
  include {
    phase: TEST
    stage: "test-on-train"
  }
  hdf5_data_param {
    source: "/media/yves/sandisk3/caffe-master/examples/coco_caption/h5_data/buffer_16/train_unaligned_batches/hdf5_chunk_list.txt"
    batch_size: 16
  }
}
layer {
  name: "embedding"
  type: "Embed"
  bottom: "input_sentence"
  top: "embedded_input_sentence"
  param {
    lr_mult: 1
  }
  embed_param {
    num_output: 1000
    input_dim: 8801
    bias_term: false
    weight_filler {
      type: "uniform"
      min: -0.08
      max: 0.08
    }
  }
}
layer {
  name: "lstm1"
  type: "LSTM"
  bottom: "embedded_input_sentence"
  bottom: "cont_sentence"
  top: "lstm1"
  recurrent_param {
    num_output: 1000
    weight_filler {
      type: "uniform"
      min: -0.08
      max: 0.08
    }
    bias_filler {
      type: "constant"
      value: 0
    }
  }
}
layer {
  name: "predict"
  type: "InnerProduct"
  bottom: "lstm1"
  top: "predict"
  param {
    lr_mult: 1
    decay_mult: 1
  }
  param {
    lr_mult: 2
    decay_mult: 0
  }
  inner_product_param {
    num_output: 8801
    weight_filler {
      type: "uniform"
      min: -0.08
      max: 0.08
    }
    bias_filler {
      type: "constant"
      value: 0
    }
    axis: 2
  }
}
layer {
  name: "cross_entropy_loss"
  type: "SoftmaxWithLoss"
  bottom: "predict"
  bottom: "target_sentence"
  top: "cross_entropy_loss"
  loss_weight: 20
  loss_param {
    ignore_label: -1
  }
  softmax_param {
    axis: 2
  }
}
layer {
  name: "accuracy"
  type: "Accuracy"
  bottom: "predict"
  bottom: "target_sentence"
  top: "accuracy"
  include {
    phase: TEST
  }
  accuracy_param {
    axis: 2
    ignore_label: -1
  }
}
I0223 23:00:46.211369  3602 layer_factory.hpp:77] Creating layer data
I0223 23:00:46.211385  3602 net.cpp:100] Creating Layer data
I0223 23:00:46.211395  3602 net.cpp:408] data -> cont_sentence
I0223 23:00:46.211408  3602 net.cpp:408] data -> input_sentence
I0223 23:00:46.211421  3602 net.cpp:408] data -> target_sentence
I0223 23:00:46.211432  3602 hdf5_data_layer.cpp:79] Loading list of HDF5 filenames from: /media/yves/sandisk3/caffe-master/examples/coco_caption/h5_data/buffer_16/train_unaligned_batches/hdf5_chunk_list.txt
I0223 23:00:46.211465  3602 hdf5_data_layer.cpp:93] Number of HDF5 files: 3
I0223 23:00:46.232995  3602 net.cpp:150] Setting up data
I0223 23:00:46.233026  3602 net.cpp:157] Top shape: 16 16 (256)
I0223 23:00:46.233032  3602 net.cpp:157] Top shape: 16 16 (256)
I0223 23:00:46.233036  3602 net.cpp:157] Top shape: 16 16 (256)
I0223 23:00:46.233038  3602 net.cpp:165] Memory required for data: 3072
I0223 23:00:46.233043  3602 layer_factory.hpp:77] Creating layer target_sentence_data_2_split
I0223 23:00:46.233052  3602 net.cpp:100] Creating Layer target_sentence_data_2_split
I0223 23:00:46.233055  3602 net.cpp:434] target_sentence_data_2_split <- target_sentence
I0223 23:00:46.233060  3602 net.cpp:408] target_sentence_data_2_split -> target_sentence_data_2_split_0
I0223 23:00:46.233067  3602 net.cpp:408] target_sentence_data_2_split -> target_sentence_data_2_split_1
I0223 23:00:46.233094  3602 net.cpp:150] Setting up target_sentence_data_2_split
I0223 23:00:46.233098  3602 net.cpp:157] Top shape: 16 16 (256)
I0223 23:00:46.233103  3602 net.cpp:157] Top shape: 16 16 (256)
I0223 23:00:46.233105  3602 net.cpp:165] Memory required for data: 5120
I0223 23:00:46.233108  3602 layer_factory.hpp:77] Creating layer embedding
I0223 23:00:46.233114  3602 net.cpp:100] Creating Layer embedding
I0223 23:00:46.233117  3602 net.cpp:434] embedding <- input_sentence
I0223 23:00:46.233121  3602 net.cpp:408] embedding -> embedded_input_sentence
I0223 23:00:46.272840  3602 net.cpp:150] Setting up embedding
I0223 23:00:46.272876  3602 net.cpp:157] Top shape: 16 16 1000 (256000)
I0223 23:00:46.272878  3602 net.cpp:165] Memory required for data: 1029120
I0223 23:00:46.272900  3602 layer_factory.hpp:77] Creating layer lstm1
I0223 23:00:46.272909  3602 net.cpp:100] Creating Layer lstm1
I0223 23:00:46.272913  3602 net.cpp:434] lstm1 <- embedded_input_sentence
I0223 23:00:46.272917  3602 net.cpp:434] lstm1 <- cont_sentence
I0223 23:00:46.272922  3602 net.cpp:408] lstm1 -> lstm1
I0223 23:00:46.272928  3602 recurrent_layer.cpp:20] Initializing recurrent layer: assuming input batch contains 16 timesteps of 16 independent streams.
I0223 23:00:46.273268  3602 net.cpp:58] Initializing net from parameters: 
layer {
  name: "lstm1_"
  type: "Input"
  top: "x"
  top: "cont"
  input_param {
    shape {
      dim: 16
      dim: 16
      dim: 1000
    }
    shape {
      dim: 16
      dim: 16
    }
  }
}
layer {
  name: "lstm1_"
  type: "Input"
  top: "c_0"
  top: "h_0"
  input_param {
    shape {
      dim: 1
      dim: 16
      dim: 1000
    }
    shape {
      dim: 1
      dim: 16
      dim: 1000
    }
  }
}
layer {
  name: "lstm1_cont_slice"
  type: "Slice"
  bottom: "cont"
  top: "cont_1"
  top: "cont_2"
  top: "cont_3"
  top: "cont_4"
  top: "cont_5"
  top: "cont_6"
  top: "cont_7"
  top: "cont_8"
  top: "cont_9"
  top: "cont_10"
  top: "cont_11"
  top: "cont_12"
  top: "cont_13"
  top: "cont_14"
  top: "cont_15"
  top: "cont_16"
  slice_param {
    axis: 0
  }
}
layer {
  name: "lstm1_x_transform"
  type: "InnerProduct"
  bottom: "x"
  top: "W_xc_x"
  param {
    name: "W_xc"
  }
  param {
    name: "b_c"
  }
  propagate_down: true
  inner_product_param {
    num_output: 4000
    bias_term: true
    weight_filler {
      type: "uniform"
      min: -0.08
      max: 0.08
    }
    bias_filler {
      type: "constant"
      value: 0
    }
    axis: 2
  }
}
layer {
  name: "lstm1_W_xc_x_slice"
  type: "Slice"
  bottom: "W_xc_x"
  top: "W_xc_x_1"
  top: "W_xc_x_2"
  top: "W_xc_x_3"
  top: "W_xc_x_4"
  top: "W_xc_x_5"
  top: "W_xc_x_6"
  top: "W_xc_x_7"
  top: "W_xc_x_8"
  top: "W_xc_x_9"
  top: "W_xc_x_10"
  top: "W_xc_x_11"
  top: "W_xc_x_12"
  top: "W_xc_x_13"
  top: "W_xc_x_14"
  top: "W_xc_x_15"
  top: "W_xc_x_16"
  slice_param {
    axis: 0
  }
}
layer {
  name: "lstm1_h_conted_0"
  type: "Scale"
  bottom: "h_0"
  bottom: "cont_1"
  top: "h_conted_0"
  scale_param {
    axis: 0
  }
}
layer {
  name: "lstm1_transform_1"
  type: "InnerProduct"
  bottom: "h_conted_0"
  top: "W_hc_h_0"
  param {
    name: "W_hc"
  }
  inner_product_param {
    num_output: 4000
    bias_term: false
    weight_filler {
      type: "uniform"
      min: -0.08
      max: 0.08
    }
    axis: 2
  }
}
layer {
  name: "lstm1_gate_input_1"
  type: "Eltwise"
  bottom: "W_hc_h_0"
  bottom: "W_xc_x_1"
  top: "gate_input_1"
  eltwise_param {
    operation: SUM
  }
}
layer {
  name: "lstm1_unit_1"
  type: "LSTMUnit"
  bottom: "c_0"
  bottom: "gate_input_1"
  bottom: "cont_1"
  top: "c_1"
  top: "h_1"
}
layer {
  name: "lstm1_h_conted_1"
  type: "Scale"
  bottom: "h_1"
  bottom: "cont_2"
  top: "h_conted_1"
  scale_param {
    axis: 0
  }
}
layer {
  name: "lstm1_transform_2"
  type: "InnerProduct"
  bottom: "h_conted_1"
  top: "W_hc_h_1"
  param {
    name: "W_hc"
  }
  inner_product_param {
    num_output: 4000
    bias_term: false
    weight_filler {
      type: "uniform"
      min: -0.08
      max: 0.08
    }
    axis: 2
  }
}
layer {
  name: "lstm1_gate_input_2"
  type: "Eltwise"
  bottom: "W_hc_h_1"
  bottom: "W_xc_x_2"
  top: "gate_input_2"
  eltwise_param {
    operation: SUM
  }
}
layer {
  name: "lstm1_unit_2"
  type: "LSTMUnit"
  bottom: "c_1"
  bottom: "gate_input_2"
  bottom: "cont_2"
  top: "c_2"
  top: "h_2"
}
layer {
  name: "lstm1_h_conted_2"
  type: "Scale"
  bottom: "h_2"
  bottom: "cont_3"
  top: "h_conted_2"
  scale_param {
    axis: 0
  }
}
layer {
  name: "lstm1_transform_3"
  type: "InnerProduct"
  bottom: "h_conted_2"
  top: "W_hc_h_2"
  param {
    name: "W_hc"
  }
  inner_product_param {
    num_output: 4000
    bias_term: false
    weight_filler {
      type: "uniform"
      min: -0.08
      max: 0.08
    }
    axis: 2
  }
}
layer {
  name: "lstm1_gate_input_3"
  type: "Eltwise"
  bottom: "W_hc_h_2"
  bottom: "W_xc_x_3"
  top: "gate_input_3"
  eltwise_param {
    operation: SUM
  }
}
layer {
  name: "lstm1_unit_3"
  type: "LSTMUnit"
  bottom: "c_2"
  bottom: "gate_input_3"
  bottom: "cont_3"
  top: "c_3"
  top: "h_3"
}
layer {
  name: "lstm1_h_conted_3"
  type: "Scale"
  bottom: "h_3"
  bottom: "cont_4"
  top: "h_conted_3"
  scale_param {
    axis: 0
  }
}
layer {
  name: "lstm1_transform_4"
  type: "InnerProduct"
  bottom: "h_conted_3"
  top: "W_hc_h_3"
  param {
    name: "W_hc"
  }
  inner_product_param {
    num_output: 4000
    bias_term: false
    weight_filler {
      type: "uniform"
      min: -0.08
      max: 0.08
    }
    axis: 2
  }
}
layer {
  name: "lstm1_gate_input_4"
  type: "Eltwise"
  bottom: "W_hc_h_3"
  bottom: "W_xc_x_4"
  top: "gate_input_4"
  eltwise_param {
    operation: SUM
  }
}
layer {
  name: "lstm1_unit_4"
  type: "LSTMUnit"
  bottom: "c_3"
  bottom: "gate_input_4"
  bottom: "cont_4"
  top: "c_4"
  top: "h_4"
}
layer {
  name: "lstm1_h_conted_4"
  type: "Scale"
  bottom: "h_4"
  bottom: "cont_5"
  top: "h_conted_4"
  scale_param {
    axis: 0
  }
}
layer {
  name: "lstm1_transform_5"
  type: "InnerProduct"
  bottom: "h_conted_4"
  top: "W_hc_h_4"
  param {
    name: "W_hc"
  }
  inner_product_param {
    num_output: 4000
    bias_term: false
    weight_filler {
      type: "uniform"
      min: -0.08
      max: 0.08
    }
    axis: 2
  }
}
layer {
  name: "lstm1_gate_input_5"
  type: "Eltwise"
  bottom: "W_hc_h_4"
  bottom: "W_xc_x_5"
  top: "gate_input_5"
  eltwise_param {
    operation: SUM
  }
}
layer {
  name: "lstm1_unit_5"
  type: "LSTMUnit"
  bottom: "c_4"
  bottom: "gate_input_5"
  bottom: "cont_5"
  top: "c_5"
  top: "h_5"
}
layer {
  name: "lstm1_h_conted_5"
  type: "Scale"
  bottom: "h_5"
  bottom: "cont_6"
  top: "h_conted_5"
  scale_param {
    axis: 0
  }
}
layer {
  name: "lstm1_transform_6"
  type: "InnerProduct"
  bottom: "h_conted_5"
  top: "W_hc_h_5"
  param {
    name: "W_hc"
  }
  inner_product_param {
    num_output: 4000
    bias_term: false
    weight_filler {
      type: "uniform"
      min: -0.08
      max: 0.08
    }
    axis: 2
  }
}
layer {
  name: "lstm1_gate_input_6"
  type: "Eltwise"
  bottom: "W_hc_h_5"
  bottom: "W_xc_x_6"
  top: "gate_input_6"
  eltwise_param {
    operation: SUM
  }
}
layer {
  name: "lstm1_unit_6"
  type: "LSTMUnit"
  bottom: "c_5"
  bottom: "gate_input_6"
  bottom: "cont_6"
  top: "c_6"
  top: "h_6"
}
layer {
  name: "lstm1_h_conted_6"
  type: "Scale"
  bottom: "h_6"
  bottom: "cont_7"
  top: "h_conted_6"
  scale_param {
    axis: 0
  }
}
layer {
  name: "lstm1_transform_7"
  type: "InnerProduct"
  bottom: "h_conted_6"
  top: "W_hc_h_6"
  param {
    name: "W_hc"
  }
  inner_product_param {
    num_output: 4000
    bias_term: false
    weight_filler {
      type: "uniform"
      min: -0.08
      max: 0.08
    }
    axis: 2
  }
}
layer {
  name: "lstm1_gate_input_7"
  type: "Eltwise"
  bottom: "W_hc_h_6"
  bottom: "W_xc_x_7"
  top: "gate_input_7"
  eltwise_param {
    operation: SUM
  }
}
layer {
  name: "lstm1_unit_7"
  type: "LSTMUnit"
  bottom: "c_6"
  bottom: "gate_input_7"
  bottom: "cont_7"
  top: "c_7"
  top: "h_7"
}
layer {
  name: "lstm1_h_conted_7"
  type: "Scale"
  bottom: "h_7"
  bottom: "cont_8"
  top: "h_conted_7"
  scale_param {
    axis: 0
  }
}
layer {
  name: "lstm1_transform_8"
  type: "InnerProduct"
  bottom: "h_conted_7"
  top: "W_hc_h_7"
  param {
    name: "W_hc"
  }
  inner_product_param {
    num_output: 4000
    bias_term: false
    weight_filler {
      type: "uniform"
      min: -0.08
      max: 0.08
    }
    axis: 2
  }
}
layer {
  name: "lstm1_gate_input_8"
  type: "Eltwise"
  bottom: "W_hc_h_7"
  bottom: "W_xc_x_8"
  top: "gate_input_8"
  eltwise_param {
    operation: SUM
  }
}
layer {
  name: "lstm1_unit_8"
  type: "LSTMUnit"
  bottom: "c_7"
  bottom: "gate_input_8"
  bottom: "cont_8"
  top: "c_8"
  top: "h_8"
}
layer {
  name: "lstm1_h_conted_8"
  type: "Scale"
  bottom: "h_8"
  bottom: "cont_9"
  top: "h_conted_8"
  scale_param {
    axis: 0
  }
}
layer {
  name: "lstm1_transform_9"
  type: "InnerProduct"
  bottom: "h_conted_8"
  top: "W_hc_h_8"
  param {
    name: "W_hc"
  }
  inner_product_param {
    num_output: 4000
    bias_term: false
    weight_filler {
      type: "uniform"
      min: -0.08
      max: 0.08
    }
    axis: 2
  }
}
layer {
  name: "lstm1_gate_input_9"
  type: "Eltwise"
  bottom: "W_hc_h_8"
  bottom: "W_xc_x_9"
  top: "gate_input_9"
  eltwise_param {
    operation: SUM
  }
}
layer {
  name: "lstm1_unit_9"
  type: "LSTMUnit"
  bottom: "c_8"
  bottom: "gate_input_9"
  bottom: "cont_9"
  top: "c_9"
  top: "h_9"
}
layer {
  name: "lstm1_h_conted_9"
  type: "Scale"
  bottom: "h_9"
  bottom: "cont_10"
  top: "h_conted_9"
  scale_param {
    axis: 0
  }
}
layer {
  name: "lstm1_transform_10"
  type: "InnerProduct"
  bottom: "h_conted_9"
  top: "W_hc_h_9"
  param {
    name: "W_hc"
  }
  inner_product_param {
    num_output: 4000
    bias_term: false
    weight_filler {
      type: "uniform"
      min: -0.08
      max: 0.08
    }
    axis: 2
  }
}
layer {
  name: "lstm1_gate_input_10"
  type: "Eltwise"
  bottom: "W_hc_h_9"
  bottom: "W_xc_x_10"
  top: "gate_input_10"
  eltwise_param {
    operation: SUM
  }
}
layer {
  name: "lstm1_unit_10"
  type: "LSTMUnit"
  bottom: "c_9"
  bottom: "gate_input_10"
  bottom: "cont_10"
  top: "c_10"
  top: "h_10"
}
layer {
  name: "lstm1_h_conted_10"
  type: "Scale"
  bottom: "h_10"
  bottom: "cont_11"
  top: "h_conted_10"
  scale_param {
    axis: 0
  }
}
layer {
  name: "lstm1_transform_11"
  type: "InnerProduct"
  bottom: "h_conted_10"
  top: "W_hc_h_10"
  param {
    name: "W_hc"
  }
  inner_product_param {
    num_output: 4000
    bias_term: false
    weight_filler {
      type: "uniform"
      min: -0.08
      max: 0.08
    }
    axis: 2
  }
}
layer {
  name: "lstm1_gate_input_11"
  type: "Eltwise"
  bottom: "W_hc_h_10"
  bottom: "W_xc_x_11"
  top: "gate_input_11"
  eltwise_param {
    operation: SUM
  }
}
layer {
  name: "lstm1_unit_11"
  type: "LSTMUnit"
  bottom: "c_10"
  bottom: "gate_input_11"
  bottom: "cont_11"
  top: "c_11"
  top: "h_11"
}
layer {
  name: "lstm1_h_conted_11"
  type: "Scale"
  bottom: "h_11"
  bottom: "cont_12"
  top: "h_conted_11"
  scale_param {
    axis: 0
  }
}
layer {
  name: "lstm1_transform_12"
  type: "InnerProduct"
  bottom: "h_conted_11"
  top: "W_hc_h_11"
  param {
    name: "W_hc"
  }
  inner_product_param {
    num_output: 4000
    bias_term: false
    weight_filler {
      type: "uniform"
      min: -0.08
      max: 0.08
    }
    axis: 2
  }
}
layer {
  name: "lstm1_gate_input_12"
  type: "Eltwise"
  bottom: "W_hc_h_11"
  bottom: "W_xc_x_12"
  top: "gate_input_12"
  eltwise_param {
    operation: SUM
  }
}
layer {
  name: "lstm1_unit_12"
  type: "LSTMUnit"
  bottom: "c_11"
  bottom: "gate_input_12"
  bottom: "cont_12"
  top: "c_12"
  top: "h_12"
}
layer {
  name: "lstm1_h_conted_12"
  type: "Scale"
  bottom: "h_12"
  bottom: "cont_13"
  top: "h_conted_12"
  scale_param {
    axis: 0
  }
}
layer {
  name: "lstm1_transform_13"
  type: "InnerProduct"
  bottom: "h_conted_12"
  top: "W_hc_h_12"
  param {
    name: "W_hc"
  }
  inner_product_param {
    num_output: 4000
    bias_term: false
    weight_filler {
      type: "uniform"
      min: -0.08
      max: 0.08
    }
    axis: 2
  }
}
layer {
  name: "lstm1_gate_input_13"
  type: "Eltwise"
  bottom: "W_hc_h_12"
  bottom: "W_xc_x_13"
  top: "gate_input_13"
  eltwise_param {
    operation: SUM
  }
}
layer {
  name: "lstm1_unit_13"
  type: "LSTMUnit"
  bottom: "c_12"
  bottom: "gate_input_13"
  bottom: "cont_13"
  top: "c_13"
  top: "h_13"
}
layer {
  name: "lstm1_h_conted_13"
  type: "Scale"
  bottom: "h_13"
  bottom: "cont_14"
  top: "h_conted_13"
  scale_param {
    axis: 0
  }
}
layer {
  name: "lstm1_transform_14"
  type: "InnerProduct"
  bottom: "h_conted_13"
  top: "W_hc_h_13"
  param {
    name: "W_hc"
  }
  inner_product_param {
    num_output: 4000
    bias_term: false
    weight_filler {
      type: "uniform"
      min: -0.08
      max: 0.08
    }
    axis: 2
  }
}
layer {
  name: "lstm1_gate_input_14"
  type: "Eltwise"
  bottom: "W_hc_h_13"
  bottom: "W_xc_x_14"
  top: "gate_input_14"
  eltwise_param {
    operation: SUM
  }
}
layer {
  name: "lstm1_unit_14"
  type: "LSTMUnit"
  bottom: "c_13"
  bottom: "gate_input_14"
  bottom: "cont_14"
  top: "c_14"
  top: "h_14"
}
layer {
  name: "lstm1_h_conted_14"
  type: "Scale"
  bottom: "h_14"
  bottom: "cont_15"
  top: "h_conted_14"
  scale_param {
    axis: 0
  }
}
layer {
  name: "lstm1_transform_15"
  type: "InnerProduct"
  bottom: "h_conted_14"
  top: "W_hc_h_14"
  param {
    name: "W_hc"
  }
  inner_product_param {
    num_output: 4000
    bias_term: false
    weight_filler {
      type: "uniform"
      min: -0.08
      max: 0.08
    }
    axis: 2
  }
}
layer {
  name: "lstm1_gate_input_15"
  type: "Eltwise"
  bottom: "W_hc_h_14"
  bottom: "W_xc_x_15"
  top: "gate_input_15"
  eltwise_param {
    operation: SUM
  }
}
layer {
  name: "lstm1_unit_15"
  type: "LSTMUnit"
  bottom: "c_14"
  bottom: "gate_input_15"
  bottom: "cont_15"
  top: "c_15"
  top: "h_15"
}
layer {
  name: "lstm1_h_conted_15"
  type: "Scale"
  bottom: "h_15"
  bottom: "cont_16"
  top: "h_conted_15"
  scale_param {
    axis: 0
  }
}
layer {
  name: "lstm1_transform_16"
  type: "InnerProduct"
  bottom: "h_conted_15"
  top: "W_hc_h_15"
  param {
    name: "W_hc"
  }
  inner_product_param {
    num_output: 4000
    bias_term: false
    weight_filler {
      type: "uniform"
      min: -0.08
      max: 0.08
    }
    axis: 2
  }
}
layer {
  name: "lstm1_gate_input_16"
  type: "Eltwise"
  bottom: "W_hc_h_15"
  bottom: "W_xc_x_16"
  top: "gate_input_16"
  eltwise_param {
    operation: SUM
  }
}
layer {
  name: "lstm1_unit_16"
  type: "LSTMUnit"
  bottom: "c_15"
  bottom: "gate_input_16"
  bottom: "cont_16"
  top: "c_16"
  top: "h_16"
}
layer {
  name: "lstm1_"
  type: "Split"
  bottom: "c_16"
  top: "c_T"
}
layer {
  name: "lstm1_h_concat"
  type: "Concat"
  bottom: "h_1"
  bottom: "h_2"
  bottom: "h_3"
  bottom: "h_4"
  bottom: "h_5"
  bottom: "h_6"
  bottom: "h_7"
  bottom: "h_8"
  bottom: "h_9"
  bottom: "h_10"
  bottom: "h_11"
  bottom: "h_12"
  bottom: "h_13"
  bottom: "h_14"
  bottom: "h_15"
  bottom: "h_16"
  top: "h"
  concat_param {
    axis: 0
  }
}
layer {
  name: "h_pseudoloss"
  type: "Reduction"
  bottom: "h"
  top: "h_pseudoloss"
  loss_weight: 1
}
I0223 23:00:46.273574  3602 layer_factory.hpp:77] Creating layer lstm1_
I0223 23:00:46.273582  3602 net.cpp:100] Creating Layer lstm1_
I0223 23:00:46.273586  3602 net.cpp:408] lstm1_ -> x
I0223 23:00:46.273592  3602 net.cpp:408] lstm1_ -> cont
I0223 23:00:46.273636  3602 net.cpp:150] Setting up lstm1_
I0223 23:00:46.273643  3602 net.cpp:157] Top shape: 16 16 1000 (256000)
I0223 23:00:46.273649  3602 net.cpp:157] Top shape: 16 16 (256)
I0223 23:00:46.273653  3602 net.cpp:165] Memory required for data: 1025024
I0223 23:00:46.273655  3602 layer_factory.hpp:77] Creating layer lstm1_
I0223 23:00:46.273659  3602 net.cpp:100] Creating Layer lstm1_
I0223 23:00:46.273663  3602 net.cpp:408] lstm1_ -> c_0
I0223 23:00:46.273668  3602 net.cpp:408] lstm1_ -> h_0
I0223 23:00:46.273692  3602 net.cpp:150] Setting up lstm1_
I0223 23:00:46.273696  3602 net.cpp:157] Top shape: 1 16 1000 (16000)
I0223 23:00:46.273699  3602 net.cpp:157] Top shape: 1 16 1000 (16000)
I0223 23:00:46.273701  3602 net.cpp:165] Memory required for data: 1153024
I0223 23:00:46.273705  3602 layer_factory.hpp:77] Creating layer lstm1_cont_slice
I0223 23:00:46.273710  3602 net.cpp:100] Creating Layer lstm1_cont_slice
I0223 23:00:46.273712  3602 net.cpp:434] lstm1_cont_slice <- cont
I0223 23:00:46.273716  3602 net.cpp:408] lstm1_cont_slice -> cont_1
I0223 23:00:46.273721  3602 net.cpp:408] lstm1_cont_slice -> cont_2
…
